duedate_pretrained_actor.pth (torch, 389522 bytes, 36 tensors)

encoder.part1_encoder.embedding.weight f4 [32, 2]
0.31713697 0.17314102 -0.50447 0.11060321 0.12696753 0.21443553 0.3266753 -0.3210671
-0.15180334 0.45330164 -0.16427816 0.0659615 -0.13207652 0.31346968 0.41478768 0.19112124
0.6187503 -0.5645912 -0.5668186 -0.39802155 0.3946013 0.49856266 -0.5717589 0.688334
-0.17863165 0.14121765 -0.26211095 -0.6714919 0.3781201 0.20150085 -0.711707 -0.07806973
-0.3856024 -0.2609107 0.019827764 -0.4330677 -0.1374842 0.40282866 -0.09583342 -0.15514706
-0.6591031 0.59312755 0.16346674 -0.10187746 -0.49816912 -0.3024405 -0.48965973 -0.114799574
0.6388637 -0.07602026 0.46367383 -0.1400159 0.58819526 0.44494343 0.6421336 -0.44869986
-0.5260298 0.2818994 -0.51363534 -0.16693603 -0.07063396 -0.68359166 0.18832435 0.042874224
00000000: c75f a23e e14b 313e f224 01bf f083 e23d
00000010: c703 023e fd94 5b3e fc41 a73e e862 a4be
00000020: 5672 1bbe 2717 e83e 8938 28be d316 873d
00000030: 113f 07be 197f a03e 0d5f d43e 49b5 433e
00000040: 6b66 1e3f 0d89 10bf 061b 11bf 7bc9 cbbe
00000050: 2e09 ca3e 9b43 ff3e cb5e 12bf a836 303f
00000060: 37eb 36be 5c9b 103e 6833 86be e5e6 2bbf
00000070: f598 c13e 3d56 4e3e 6e32 36bf 06e3 9fbd
00000080: ae6d c5be 1696 85be d66d a23c 0dbb ddbe
00000090: a8c8 0cbe 8f3f ce3e 5044 c4bd dfde 1ebe
000000a0: fbba 28bf 35d7 173f d363 273e 21a5 d0bd
000000b0: 0610 ffbe 7bd9 9abe aeb4 fabe 0a1c ebbd
000000c0: 928c 233f 83b0 9bbd a866 ed3e 5460 0fbe
000000d0: f793 163f a0cf e33e de62 243f fdbb e5be
000000e0: e4a9 06bf 1e55 903e 9b7d 03bf 47f1 2abe
000000f0: 8aa8 90bd ddff 2ebf 19d8 403e e29c 2f3d

encoder.part1_encoder.embedding.bias f4 [32]
-0.093656614 -0.4199961 -0.71118385 0.5034644 -0.41035685 -0.50030684 -0.44339877 0.2503975
-0.1328029 -0.39580262 0.19005977 0.5869036 -0.35829464 0.45868596 -0.67916274 0.6038835
0.2812812 0.21579021 -0.6690587 -0.6010755 -0.31269366 -0.5550007 -0.18299305 -0.29565638
0.08953436 -0.58974046 -0.009545097 0.40123695 0.6248694 -0.019235829 -0.40559146 0.30319396
00000000: 0acf bfbd bb09 d7be 2510 36bf 0be3 003f
00000010: 4b1a d2be 1c14 00bf 2a05 e3be 1a34 803e
00000020: 7cfd 07be a4a6 cabe 079f 423e 503f 163f
00000030: 6572 b7be e3d8 ea3e 9cdd 2dbf 1c98 1a3f
00000040: 1704 903e 1cf8 5c3e 6e47 2bbf 15e0 19bf
00000050: 6219 a0be 8714 0ebf 8862 3bbe 4660 97be
00000060: ca5d b73d 3bf9 16bf 0a63 1cbc ee6e cd3e
00000070: 71f7 1f3f 7594 9dbc afa9 cfbe 3d3c 9b3e

encoder.part1_encoder.rnn.weight_ih_l0 f4 [64, 32]
-0.068097994 0.122786134 -0.061639585 0.025063891 0.031802017 -0.03605624 -0.08574785 -0.07199186
0.09356911 -0.07918868 0.02813244 -0.09799671 0.037332136 0.09853909 0.12516151 -0.12731856
-0.029281637 -0.055374216 0.06318246 -0.053616684 0.073622204 0.08253656 0.009111641 0.008247108
0.09515566 0.017255818 -0.08333725 -0.08071064 -0.12494653 -0.0022653304 -0.02684584 0.053428862
0.13084511 -0.011688809 0.11461652 -0.053216364 -0.036494803 0.013573887 0.04937381 -0.014832255
-0.033382952 0.016090337 -0.08484415 -0.097480506 0.041880004 0.009706521 0.10843271 -0.0014866181
-0.041447703 0.01963162 -0.039123397 -0.05810437 0.013470735 -0.017852783 -0.063937984 -0.0597576
0.023197459 0.015070616 0.101374716 0.03888155 -0.09625431 -0.06592894 -0.0728919 -0.07348243
0.07154939 -0.035669144 -0.04674552 -0.031885087 -0.06846024 0.121917374 0.013409635 -0.103495695
-0.10464958 0.064628035 -0.03849 -0.018717948 0.10436158 0.108110815 -0.020835903 0.049329177
-0.037483137 0.06405367 -0.07679415 0.06484546 -0.09951991 0.09800381 0.058179013 0.012645053
-0.041775256 -0.10349224 -0.11848378 -0.11766626 -0.09887483 0.12285909 0.048861835 0.023477387
-0.09639008 0.10467511 -0.051978864 0.045798592 0.020338092 -0.12294615 -0.13678166 -0.11453198
0.035896756 -0.08792426 -0.11834943 0.05057818 0.03596982 -0.044647507 -0.12598841 0.103038594
-0.069289446 0.04028946 -0.03626833 0.046984136 -0.0032740207 0.04852401 0.08731077 -0.10412758
-0.07532657 0.047944725 0.050754838 0.011806147 -0.081350625 0.12751377 0.07842372 -0.09416096
0.083935454 -0.0999406 -0.07921229 0.0228975 0.025799738 0.0433985 0.122362584 -0.078448825
0.0057449867 -0.081338085 -0.05665591 0.11944839 -0.037090115 0.10278221 -0.11355167 -0.089470714
-0.002661578 0.00096526934 0.11712741 0.12634666 -0.037217047 0.032796796 0.07212782 0.04194894
-0.1185788 8.479735e-05 0.07731788 -0.13556716 -0.10478434 0.059833124 -0.08740013 -0.133877
0.025163045 -0.04010745 0.027257478 -0.008484244 -0.07350232 -0.1064028 0.104317494 -0.12737018
0.04747192 -0.10516004 0.0059521417 0.015878592 -0.06822088 -0.035873346 -0.13920106 0.040522207
-0.0903877 -0.059759233 0.09244572 0.018061353 -0.067313395 -0.004968586 -0.053744055 -0.0215694
0.090762675 -0.13278934 -0.07014519 -0.036966585 0.08343168 0.02438469 -0.013672375 -0.06916402
0.0066414275 0.016164124 -0.04903803 -0.016693095 0.04626178 -0.00702211 -0.09795966 0.017022068
-0.017589564 0.04417125 -0.039118197 0.036947984 -0.045096725 0.049192674 -0.0992835 0.08200303
-0.106485195 -0.07406542 0.095401 0.04280862 0.0916062 -0.05341818 0.02713605 -0.0050203186
0.0043379497 -0.039136976 0.032479156 0.11165326 0.05176291 0.04123278 0.046667725 -0.09066119
-0.047885675 0.02200162 0.0702053 0.038480952 0.068837404 0.09653599 0.084669724 -0.096472606
0.14601977 0.0631997 -0.08083901 0.059703965 0.05241525 0.025381077 0.07146903 -0.12848945
-0.10205239 0.027337883 -0.0043691187 -0.020012895 0.025747567 -0.023999857 -0.118926145 -0.02525851
0.09570076 0.040995885 0.07507026 0.06470499 -0.09917135 -0.037148632 0.038879458 0.082826294
00000000: f676 8bbd 4c77 fb3d ca79 7cbd ca52 cd3c
00000010: d542 023d b5af 13bd 929c afbd 7870 93bd
00000020: 29a1 bf3d ad2d a2bd 0176 e63c 80b2 c8bd
00000030: 95e9 183d ddce c93d 572a 003e cc5f 02be
00000040: 0be0 efbc 13d0 62bd ce65 813d 2b9d 5bbd
00000050: 3dc7 963d ee08 a93d fe48 153c e11e 073c
00000060: f8e0 c23d 135c 8d3c b8ac aabd 9f4b a5bd
00000070: f7e3 ffbd f075 14bb cfeb dbbc 39d8 5a3d
00000080: 43fc 053e 6b82 3fbc 11bc ea3d 67f9 59bd
00000090: 937b 15bd 0265 5e3c 313c 4a3d fd02 73bc
000000a0: 90bc 08bd e2cf 833c c5c2 adbd dca3 c7bd
000000b0: 5e8a 2b3d 1a08 1f3c f811 de3d a0da c2ba
000000c0: 11c5 29bd 7ed2 a03c db3f 20bd d9fe 6dbd
000000d0: 5cb4 5c3c 0040 92bc ebf1 82bd 63c4 74bd
000000e0: 9908 be3c bfea 763c 8c9d cf3d 4342 1f3d
000000f0: fb20 c5bd c105 87bd 5948 95bd f57d 96bd
00000100: 7d88 923d cf19 12bd 3b78 3fbd f099 02bd
00000110: e234 8cbd d1af f93d 16b4 5b3c 8df5 d3bd
00000120: 8552 d6bd b45b 843d b1a7 1dbd 6256 99bc
00000130: 86bb d53d 3469 dd3d 0eb0 aabc 640d 4a3d
00000140: eb87 19bd 922e 833d 4046 9dbd b2cd 843d
00000150: 18d1 cbbd 39b6 c83d 1e4d 6e3d 322d 4f3c
00000160: 881c 2bbd bdf3 d3bd a0a7 f2bd 02fb f0bd
00000170: e37e cabd 8c9d fb3d 5923 483d a653 c03c
00000180: 2a68 c5bd e75f d63d cae7 54bd 4e97 3b3d
00000190: 129c a63c 31cb fbbd 7e10 0cbe be8f eabd
000001a0: 7a08 133d a211 b4bd 3061 f2bd 112b 4f3d
000001b0: 1755 133d 4ee0 36bd 1b03 01be e605 d33d
000001c0: a0e7 8dbd 9006 253d 1a8e 14bd 7072 403d
000001d0: f490 56bb 1dc1 463d fdcf b23d d740 d5bd
000001e0: d144 9abd b061 443d 4ee4 4f3d 926e 413c
000001f0: 289b a6bd f892 023e 9e9c a03d 76d7 c0bd
00000200: 5ae6 ab3d a8ad ccbd 0e3a a2bd 8a93 bb3c
00000210: f959 d33c a0c2 313d 3c99 fa3d c7a9 a0bd
00000220: 7140 bc3b 9594 a6bd 0710 68bd 5ca1 f43d
00000230: ceeb 17bd 7b7f d23d c78d e8bd 6c3c b7bd
00000240: de6d 2ebb 210a 7d3a 7fe0 ef3d 0561 013e
00000250: e770 18bd ef55 063d c0b7 933d a7d2 2b3d
00000260: 71d9 f2bd 3bd5 b138 d658 9e3d 1ed2 0abe
00000270: 2c99 d6bd 9413 753d d7fe b2bd 0d17 09be
00000280: bb22 ce3c b647 24bd 134b df3c 8001 0bbc
00000290: 6288 96bd b6e9 d9bd 69a4 d53d 546d 02be
000002a0: ea71 423d 265e d7bd 2f0a c33b d213 823c
000002b0: 64b7 8bbd eeef 12bd b98a 0ebe 9dfa 253d
000002c0: 301d b9bd 19c6 74bd 2f54 bd3d 67f5 933c
000002d0: 9bdb 89bd 85cf a2bb ba22 5cbd 4fb2 b0bc
000002e0: c8e1 b93d eef9 07be 48a8 8fbd 466a 17bd
000002f0: 3bde aa3d 67c2 c73c 1902 60bc dea5 8dbd
00000300: 55a0 d93b a06a 843c 1adc 48bd f5bf 88bc
00000310: fe7c 3d3d ba19 e6bb 139f c8bd dd71 8b3c
00000320: fd17 90bc eaec 343d 673a 20bd c556 173d
00000330: 58b7 38bd 427e 493d 2655 cbbd 34f1 a73d
00000340: e914 dabd 9caf 97bd 9961 c33d 1758 2f3d
00000350: 089c bb3d 06cd 5abd 6c4c de3c 7c81 a4bb
00000360: 5c25 8e3b 184e 20bd dd08 053d 77aa e43d
00000370: 5805 543d b4e3 283d a826 3f3d 93ac b9bd
00000380: c523 44bd be3c b43c ccc7 8f3d 349e 1d3d
00000390: a0fa 8c3d a9b4 c53d 5267 ad3d 6e93 c5bd
000003a0: 3586 153e d86e 813d ec8e a5bd 258c 743d
000003b0: 60b1 563d faeb cf3c 5b5e 923d bd92 03be
000003c0: d800 d1bd b2f3 df3c d32a 8fbb 15f2 a3bc
000003d0: 90ec d23c 599b c4bc 8d8f f3bd efea cebc
000003e0: c3fe c33d 4deb 273d 70be 993d 0d84 843d
000003f0: 591a cbbd 2a29 18bd 1140 1f3d d5a0 a93d

encoder.part1_encoder.rnn.weight_hh_l0 f4 [64, 64]
0.06156286 0.06637636 0.033703342 -0.09886899 0.027563468 0.08127709 -0.025615158 0.019743076
0.0017107192 0.09545901 -0.054458503 -0.060949635 0.08136009 -0.055806477 -0.09968427 0.0051662293
-0.106495425 -0.02107029 0.00076919165 -7.612705e-05 -0.05319333 0.0035001186 -0.1260214 -0.046101347
-0.015567211 -0.030224308 0.015346806 -0.058736175 0.10748535 -0.020992842 0.14658394 0.044840705
-0.105758704 -0.04486936 0.04483607 0.07470249 -0.12905289 0.07829599 0.070066705 0.052818164
-0.13543046 -0.13696253 0.103827976 0.08354856 0.06110797 -0.10675177 0.0032912695 -0.025537446
-0.027997268 0.07674497 -0.0972909 -0.09957626 0.1171185 -0.12278622 0.014573833 -0.08742195
-0.04165984 0.1083124 0.11966244 0.04224969 0.036927182 0.05843998 0.1156049 -0.021083174
0.12688977 0.06369752 0.053499874 0.017130058 0.0489353 0.040803764 -0.024583505 0.043660752
0.10027974 -0.06430969 0.10804819 -0.08770504 -0.05826551 0.04429908 -0.12586296 -0.055572152
-0.068298236 0.06448317 0.021702213 0.04651904 0.13253483 0.04995525 0.13586289 0.051190194
0.08540189 -0.09877777 -0.03715792 0.017004486 0.061157785 -0.077650554 -0.12795374 0.099116325
-0.11043671 -0.085459806 0.07101647 0.04847624 -0.069142394 -0.012652778 -0.057745885 -0.12916578
0.0904168 0.124016754 -0.0017994833 -0.06641345 -0.10389683 -0.11357102 -0.10323981 -0.058604687
0.033473156 0.0959007 -0.053409114 -0.019132538 0.08766118 0.11378198 0.068686426 0.013336886
-0.0909445 -0.084027775 0.07530826 -0.0078040296 0.08138374 0.08485494 -0.015098137 0.11827755
-0.051740956 0.0060529807 0.11872939 -0.0750242 0.050398212 -0.13018373 -0.10054367 0.03356734
0.020422455 -0.056800105 -0.021890566 0.012003092 0.02459943 -0.10499052 0.035080004 -0.085280426
0.011696143 -0.033277277 0.091299064 -0.010262133 -0.08236225 -0.05846255 0.04043303 -0.084362246
-0.0626156 -0.036434542 -0.015657838 -0.052024398 0.00044059526 0.056883827 0.017602034 0.046834234
0.06262661 -0.049428396 0.10390178 -0.11191364 0.0960545 0.006311526 -0.126503 0.10337097
0.053968325 0.06996044 -0.1296364 -0.07909986 0.025800617 -0.030761044 -0.09069969 -0.021366194
-0.11838086 -0.063258424 -0.07288706 0.084190845 -0.09679414 0.056574486 -0.017898455 0.12647171
0.076125264 0.089505315 -0.060157984 0.09249986 -0.0330004 0.002425274 -0.0018451351 0.10932161
0.061371747 -0.07972042 0.01642626 -0.007893351 -0.04552147 0.11716063 -0.020613851 0.06220168
-0.10547049 -0.10467703 0.07333782 -0.009890964 0.12649783 -0.12872398 0.041530848 -0.039444074
-0.0258816 -0.029700773 0.021900602 -0.076575324 0.006759934 -0.046879556 -0.1361402 0.008678808
-0.03863672 -0.045604073 -0.040309113 0.024640601 0.065344185 0.08328219 -0.06660687 0.057177994
-0.07564051 -0.056439675 -0.008220473 -0.1294682 -0.054940674 0.028536398 -0.0048956824 -0.09011234
-0.09305802 -0.06105084 -0.121572964 0.04688966 0.06723021 0.025737898 0.04262006 -0.042380046
-0.108905256 -0.057729807 -0.07589463 -0.02613343 -0.12095676 -0.11725734 -0.11540491 -0.066563174
0.05186032 -0.029292963 -0.00885674 -0.13731955 0.064560935 0.13718306 0.017869018 -0.0050419075
00000000: 5629 7c3d 54f0 873d 840c 0a3d d37b cabd
00000010: c8cc e13c 9a74 a63d e1d6 d1bc 3bbc a13c
00000020: 363a e03a 0380 c33d e10f 5fbd 53a6 79bd
00000030: 1ea0 a63d 5595 64bd 4427 ccbd 7949 a93b
00000040: 461a dabd 9a9b acbc 94a3 493a 66a6 9fb8
00000050: 40e1 59bd 3f62 653b c10b 01be c4d4 3cbd
00000060: 9e0d 7fbc f898 f7bc 2b71 7b3c 5895 70bd
00000070: 4721 dc3d 2ef9 abbc 1a1a 163e e3aa 373d
00000080: 0598 d8bd efc8 37bd 07a6 373d 9efd 983d
00000090: 7126 04be a659 a03d 227f 8f3d dc57 583d
000000a0: 48ae 0abe e83f 0cbe c3a3 d43d 821b ab3d
000000b0: 5a4c 7a3d aca0 dabd 57b2 573b e833 d1bc
000000c0: 875a e5bc 782c 9d3d 7440 c7bd a3ee cbbd
000000d0: d3db ef3d 5777 fbbd 16c7 6e3c 480a b3bd
000000e0: 82a3 2abd e4d2 dd3d 9511 f53d 030e 2d3d
000000f0: f540 173d c35e 6f3d 43c2 ec3d 9fb6 acbc
00000100: 64ef 013e d873 823d af22 5b3d 5654 8c3c
00000110: 6270 483d d921 273d 5963 c9bc 9ed5 323d
00000120: 775f cd3d ccb4 83bd 5f48 dd3d b39e b3bd
00000130: d1a7 6ebd f472 353d 38e2 00be a09f 63bd
00000140: f2df 8bbd c10f 843d d7c8 b13c c08a 3e3d
00000150: 36b7 073e e09d 4c3d a41f 0b3e cfac 513d
00000160: 30e7 ae3d 004c cabd e732 18bd fe4c 8b3c
00000170: 9680 7a3d 4107 9fbd 4e06 03be 80fd ca3d
00000180: a42c e2bd 8d05 afbd 1571 913d 068f 463d
00000190: 879a 8dbd 994d 4fbc f386 6cbd 0944 04be
000001a0: 712c b93d 7ffc fd3d a4dc ebba c603 88bd
000001b0: dcc7 d4bd ec97 e8bd 656f d3bd 780b 70bd
000001c0: 261b 093d 9667 c43d 84c3 5abd d7bb 9cbc
000001d0: b487 b33d 8706 e93d 78ab 8c3d f482 5a3c
000001e0: 1c41 babd c116 acbd 383b 9a3d f2b8 ffbb
000001f0: 85ac a63d 6dc8 ad3d 2d5e 77bc 803b f23d
00000200: 53ee 53bd 1558 c63b 6528 f33d 4aa6 99bd
00000210: 5b6e 4e3d e24e 05be d7e9 cdbd e87d 093d
00000220: fe4c a73c 3aa7 68bd d853 b3bc 9ea8 443c
00000230: be84 c93c 4505 d7bd 0db0 0f3d 81a7 aebd
00000240: 2ea1 3f3c c14d 08bd 01fb ba3d 8122 28bc
00000250: 8aad a8bd 6d76 6fbd 1b9d 253d 1dc6 acbd
00000260: 9c3c 80bd 633c 15bd de44 80bc 8917 55bd
00000270: b2ff e639 04ff 683d 2432 903c 41d5 3f3d
00000280: 6142 803d 6e75 4abd 75ca d43d fa32 e5bd
00000290: 39b8 c43d ebd0 ce3b 018a 01be 29b4 d33d
000002a0: e40d 5d3d 6b47 8f3d 68bf 04be 1bff a1bd
000002b0: d15b d33c 96fe fbbc c2c0 b9bd 2808 afbc
000002c0: aa71 f2bd a28d 81bd d045 95bd 406c ac3d
000002d0: 023c c6bd a6ba 673d c89f 92bc cd81 013e
000002e0: 90e7 9b3d 904e b73d 3868 76bd 9170 bd3d
000002f0: 6d2b 07bd 59f1 1e3b 76d8 f1ba 02e4 df3d
00000300: f160 7b3d 7644 a3bd 5d90 863c 1d53 01bc
00000310: b974 3abd eaf1 ef3d 61de a8bc 30c7 7e3d
00000320: ea00 d8bd e960 d6bd 2432 963d b60d 22bc
00000330: a688 013e 38d0 03be 401c 2a3d 1c90 21bd
00000340: a605 d4bc 094f f3bc e468 b33c 86d3 9cbd
00000350: 7082 dd3b c704 40bd 5668 0bbe 8f31 0e3c
00000360: 8a41 1ebd 56cb 3abd 2b1b 25bd 16db c93c
00000370: 2cd3 853d da8f aa3d 2f69 88bd 7933 6a3d
00000380: 69e9 9abd 4a2d 67bd 2aaf 06bc 5093 04be
00000390: 7909 61bd 2ac5 e93c f66b a0bb d28c b8bd
000003a0: 3495 bebd 7210 7abd 3ffb f8bd 5f0f 403d
000003b0: feaf 893d 49d8 d23c 5f92 2e3d b396 2dbd
000003c0: b809 dfbd 1776 6cbd a56e 9bbd c615 d6bc
000003d0: 2eb8 f7bd 9e24 f0bd 6959 ecbd 4652 88bd
000003e0: 7d6b 543d ccf7 efbc dc1b 11bc 7f9d 0cbe
000003f0: 8638 843d b779 0c3e 0c62 923c 9636 a5bb

encoder.part1_encoder.rnn.bias_ih_l0 f4 [64]
-0.09887092 -0.047180314 -0.11755938 0.054084368 -0.09738017 0.0061358116 0.094304815 -0.079808
-0.114103585 -0.0010796862 -0.046912063 0.013108963 0.1365665 -0.124523014 -0.016172515 -0.10937373
-0.09118225 -0.119890645 0.099218965 0.13170002 0.09655605 0.06251153 -0.06258981 0.102891125
0.11976199 0.096780844 0.085514836 0.113663994 0.1382016 0.10696027 0.114204876 -0.12137686
-0.01437339 -0.028856289 -0.09668343 0.0002607236 0.08403009 0.0711759 -0.037816517 0.0007075028
0.0056943065 -0.1326471 -0.085823186 0.12759072 -0.10650168 0.109295756 0.11115791 -0.0082483385
0.13240656 -0.07269767 -0.043175276 0.010767722 0.030733991 -0.09319513 0.060761217 -0.024970815
0.07263555 -0.050319824 0.012524652 -0.0646316 0.0893578 -0.08791976 0.14334291 0.09010564
00000000: d67c cabd 2540 41bd f9c2 f0bd 9287 5d3d
00000010: 416f c7bd eb0e c93b e222 c13d 6072 a3bd
00000020: 24af e9bd 4284 8dba dd26 40bd fac6 563c
00000030: 17d8 0b3e ec05 ffbd 397c 84bc 56ff dfbd
00000040: c2bd babd 3a89 f5bd 5033 cb3d 5fdc 063e
00000050: 2ebf c53d 0c06 803d 162f 80bd 95b8 d23d
00000060: c645 f53d 0935 c63d 6722 af3d abc8 e83d
00000070: b884 0d3e fc0d db3d 3fe4 e93d 6e94 f8bd
00000080: 5e7e 6bbc 0664 ecbc f601 c6bd bbb1 8839
00000090: f817 ac3d acc4 913d 7ee5 1abd b677 393a
000000a0: 4e97 ba3b a4d4 07be 11c4 afbd 24a7 023e
000000b0: 8e1d dabd 74d6 df3d c2a6 e33d 0a24 07bc
000000c0: 9695 073e 84e2 94bd 8fd8 30bd 196b 303c
000000d0: dac5 fb3c 17dd bebd c1e0 783d 988f ccbc
000000e0: f2c1 943d 291c 4ebd 3334 4d3c 935d 84bd
000000f0: 3901 b73d 460f b4bd 7cc8 123e 4e89 b83d

encoder.part1_encoder.rnn.bias_hh_l0 f4 [64]
0.037439004 -0.051029682 -0.062090598 -0.017767722 -0.116433434 0.023160947 -0.11853391 0.08378163
-0.016795935 -0.13564566 0.02708366 0.12939113 0.10211157 0.0919639 0.09926193 0.033936992
-0.09705973 -0.1239012 -0.120525405 0.015290404 -0.09189817 -0.008937795 0.04012391 -0.015580715
-0.0050665988 -0.024241475 -0.00030577325 -0.022449562 -0.06093131 0.01828894 -0.091241695 0.10509288
-0.04811098 -0.007127163 0.075992554 -0.120854646 0.009520061 -0.11754858 -0.049390607 0.13068436
0.0029459584 0.027322555 0.041270826 -0.060576353 -0.051663984 -0.026676517 -0.06687538 0.12665011
-0.09791097 -0.11847585 0.05045576 0.09406705 0.017030468 -0.04719842 0.035430368 -0.07759803
-0.08504425 0.012286481 0.012918894 0.04347664 0.030219726 0.11367425 -0.06789632 -0.008688788
00000000: a459 193d 8004 51bd b652 7ebd 9d8d 91bc
00000010: a774 eebd 07bc bd3c e8c1 f2bd b495 ab3d
00000020: a197 89bc b2e6 0abe 8dde dd3c 1c7f 043e
00000030: df1f d13d 9257 bc3d d749 cb3d 8401 0b3d
00000040: 40c7 c6bd eabf fdbd 06d6 f6bd 9a84 7a3c
00000050: 1c35 bcbd d46f 12bc f858 243d 4146 7fbc
00000060: b605 a6bb 0f96 c6bc 3150 a0b9 25e8 b7bc
00000070: 1c93 79bd b0d2 953c eddc babd f03a d73d
00000080: 0510 45bd fa8a e9bb fca1 9b3d a482 f7bd
00000090: 08fa 1b3c 4fbd f0bd ce4d 4abd 1fd2 053e
000000a0: fb10 413b 8dd3 df3c 990b 293d e91e 78bd
000000b0: 9d9d 53bd b688 dabc f6f5 88bd 91b0 013e
000000c0: 8c85 c8bd 77a3 f2bd b3aa 4e3d 3aa6 c03d
000000d0: 7b83 8b3c 2153 41bd 6f1f 113d b7eb 9ebd
000000e0: ae2b aebd 3d4d 493c c5a9 533c 9014 323d
000000f0: 5c8f f73c 0cce e83d 3a0d 8bbd 6b5b 0ebc

encoder.part2_integrator.machine_embedding.weight f4 [16, 1]
0.70462185 0.5793402 0.07781677 -0.9839609 -0.25156093 0.42597988 -0.3863872 -0.1164736
-0.40186447 -0.7291879 -0.7463672 -0.3761989 0.7364662 -0.17888032 0.5696971 -0.8187955
00000000: 1962 343f a44f 143f 665e 9f3d dde4 7bbf
00000010: 98cc 80be 091a da3e 8bd4 c5be b689 eebd
00000020: 2ec1 cdbe 0fac 3abf ec11 3fbf 249d c0be
00000030: 0d89 3c3f 672c 37be abd7 113f 959c 51bf

encoder.part2_integrator.machine_embedding.bias f4 [16]
0.6432808 -0.9046589 -0.30154532 -0.8577569 -0.19897154 0.66841894 0.66871536 0.91985357
-0.5463459 -0.02146937 -0.8532541 0.8579783 0.2417645 0.015872387 0.49188265 -0.36632952
00000000: 0dae 243f ba97 67bf 2664 9abe f595 5bbf
00000010: 32bf 4bbe 811d 2b3f ee30 2b3f 867b 6b3f
00000020: 53dd 0bbf 88e0 afbc dc6e 5abf 77a4 5b3f
00000030: 1d91 773e cf06 823c 0bd8 fb3e 8b8f bbbe

encoder.part2_integrator.fc_layer.weight f4 [48, 80]
0.034247372 0.06587624 0.050811067 0.045307297 -0.041262627 0.05446908 -0.12901048 0.027229954
0.006559547 -0.08325962 0.063618965 0.019893413 0.06398167 -0.05877693 -0.007925674 0.08421092
-0.059481103 0.09278375 -0.09781168 0.022767214 -0.048346825 0.025104411 -0.0043689893 0.075640194
0.025651377 -0.089820445 -0.016465781 0.08983576 -0.12941432 -0.0012014677 0.10365318 0.019572554
-0.022701368 -0.08135446 0.052496705 -0.10804709 0.10186966 -0.078634866 -0.047474757 -0.09360917
0.03329649 0.07412029 -0.051922202 -0.08809131 -0.10444167 -0.10757057 -0.030580385 -0.055594523
-0.107945375 0.05067282 0.09834216 0.03945089 -0.07649337 0.08449829 -0.02971676 -0.04130847
-0.019426515 0.054783806 -0.056415822 -0.0024644658 0.012698536 0.014131644 -0.08888211 -0.08572806
0.053168613 -0.043064877 -0.037870783 0.12469386 -0.013367733 0.08835411 -0.051297866 -0.059205536
0.031891584 -0.04202234 0.016421271 0.104137786 0.02881498 -0.06506807 -0.078701146 -0.03055146
0.079326466 0.0003640413 -0.10224289 -0.0031302175 -0.07274376 -0.08604363 -0.121421486 0.045977566
-0.11894812 0.03324446 -0.10705892 -0.07520821 -0.027373042 -0.062752165 0.11745405 -0.0638965
-0.0458043 0.0024776908 -0.036339317 0.07431197 0.0195424 0.066421315 -0.017457116 0.0006290958
0.05154146 -0.056912284 0.11926163 -0.079488926 0.012682699 0.114107706 0.02945013 -0.09541081
-0.030602181 0.0725398 0.023359112 -0.07355955 0.012077172 -0.10048191 -0.032460727 -0.08280795
0.02664104 0.081105426 0.088483185 0.06910421 0.03520139 -0.052210335 -0.09992885 -0.07123546
0.11346775 0.09099073 0.08597938 -0.092355 0.100622274 0.066284515 0.102237865 0.08938658
0.10480814 0.0270799 0.012133894 -0.07298657 -0.12610504 0.062124535 -0.083012626 -0.031480115
-0.10875767 -0.049323 -0.07762585 0.042109672 -0.016495608 -0.04166415 -0.02367747 0.0009883465
0.003946714 -0.04803147 -0.05493872 0.012871663 -0.044309974 0.04001303 -0.010203285 -0.019802704
0.041531704 -0.020648222 -0.007384715 0.060543973 0.0073620146 0.06237399 0.032348096 0.11032663
-0.10014565 -0.11612502 0.09559406 0.06949971 0.026278546 0.04976743 0.05826203 0.054697108
0.08494313 -0.06826223 -0.09988593 -0.00732668 0.072620146 0.025239175 0.04925362 -0.037846327
-0.04189046 0.057022806 -0.0018778546 -0.01986007 -0.01865802 0.014946895 -0.042414177 -0.049681567
0.103165634 0.11377011 0.053199083 -0.041190915 0.101377495 0.044101823 -0.0021253456 0.06861106
-0.049509373 0.082501054 0.11176366 0.033452943 -0.0427142 -0.061934505 -0.105300985 -0.054391332
0.07626148 0.06574271 -0.041946176 -0.00096032437 0.054243274 0.043869298 0.03487728 0.0586502
0.11055544 0.118739896 -0.017898792 0.07765735 -0.098756135 0.04442654 -0.12274409 0.037732948
0.039725497 -0.035128467 -0.11169724 -0.03206066 -0.00094458315 0.12735032 -0.110153146 0.003708616
0.0784534 0.092612945 0.04306209 0.10411684 0.04858851 -0.004950277 0.010202445 0.11911102
-0.05493566 -0.06828668 0.06410666 0.03255999 -0.0057736263 0.05461836 -0.06980327 -0.067279786
-0.015437759 -0.041638218 0.017717019 -0.03070771 0.020766273 -0.036412664 -0.07653954 0.106282204
00000000: f946 0c3d 1fea 863d 441f 503d 2594 393d
00000010: 0003 29bd f81a 5f3d 531b 04be 5a11 df3c
00000020: 78f1 d63b 0584 aabd a94a 823d 83f7 a23c
00000030: d208 833d 14c0 70bd b0da 01bc c676 ac3d
00000040: 75a2 73bd 6805 be3d 7d51 c8bd 4f82 ba3c
00000050: 5207 46bd c4a7 cd3c bd29 8fbb 3fe9 9a3d
00000060: d622 d23c c8f3 b7bd 3fe3 86bc d0fb b73d
00000070: 3085 04be 917a 9dba 1e48 d43d 9f56 a03c
00000080: 38f8 b9bc 2b9d a6bd c906 573d cb47 ddbd
00000090: 0aa1 d03d 510b a1bd e474 42bd 2ab6 bfbd
000000a0: e661 083d 61cc 973d 60ac 54bd 3769 b4bd
000000b0: 84e5 d5bd f64d dcbd b783 fabc 15b7 63bd
000000c0: 7712 ddbd 4e8e 4f3d 9d67 c93d 4297 213d
000000d0: 8ea8 9cbd 710d ad3d 9070 f3bc 1233 29bd
000000e0: 5b24 9fbc fc64 603d 4714 67bd e082 21bb
000000f0: 850d 503c 6988 673c d307 b6bd 3192 afbd
00000100: 55c7 593d cc64 30bd 651e 1bbd 7f5f ff3d
00000110: 5604 5bbc 00f3 b43d b61d 52bd 8181 72bd
00000120: c0a0 023d 9e1f 2cbd e785 863c 3146 d53d
00000130: 650d ec3c 6942 85bd 112e a1bd 0e47 fabc
00000140: ea75 a23d ccdc be39 b864 d1bd 5624 4dbb
00000150: aefa 94bd a537 b0bd d4ab f8bd f952 3c3d
00000160: 129b f3bd 582b 083d b541 dbbd c306 9abd
00000170: 6e3d e0bc 3584 80bd c08b f03d 2bdc 82bd
00000180: 4a9d 3bbd c160 223b 89d8 14bd e030 983d
00000190: 6217 a03c e607 883d 3a02 8fbc e8e9 243a
000001a0: 231d 533d db1c 69bd 713f f43d 17cb a2bd
000001b0: 18cb 4f3c 4db1 e93d 6641 f13c be66 c3bd
000001c0: 6db1 fabc bf8f 943d 9c5b bf3c 64a6 96bd
000001d0: 55df 453c 76c9 cdbd 8af5 04bd 3797 a9bd
000001e0: 4f3e da3c 9a1a a63d ac36 b53d 8286 8d3d
000001f0: 552f 103d 81da 55bd 7fa7 ccbd e6e3 91bd
00000200: c861 e83d 5959 ba3d f515 b03d 9e24 bdbd
00000210: 0d13 ce3d 2dc0 873d 1662 d13d 5010 b73d
00000220: a6a5 d63d abd6 dd3c 3dcd 463c fc79 95bd
00000230: ae21 01be 4c76 7e3d 8602 aabd 4bf1 00bd
00000240: 57bc debd ea06 4abd 4dfa 9ebd 317b 2c3d
00000250: cc21 87bc 07a8 2abd 41f7 c1bc 688b 813a
00000260: 7053 813b a6bc 44bd 6c07 61bd abe3 523c
00000270: 607e 35bd b4e4 233d ae2b 27bc 4839 a2bc
00000280: 261d 2a3d 7626 a9bc 7bfb f1bb f5fc 773d
00000290: 0e3d f13b de7b 7f3d 707f 043d eef2 e13d
000002a0: 2a19 cdbd f4d2 edbd d2c6 c33d dd55 8e3d
000002b0: 1b46 d73c efd8 4b3d 2ba4 6e3d 130a 603d
000002c0: aaf6 ad3d 11cd 8bbd ff90 ccbd a514 f0bb
000002d0: dfb9 943d 63c2 ce3c 2abe 493d c004 1bbd
000002e0: 5595 2bbd bf90 693d 5822 f6ba 96b1 a2bc
000002f0: b4d8 98bc d2e3 743c 7dba 2dbd e67e 4bbd
00000300: 8148 d33d 4e00 e93d 48e7 593d ceb7 28bd
00000310: 019f cf3d 1da4 343d 6249 0bbb f583 8c3d
00000320: 57ca 4abd 50f6 a83d 59e4 e43d f405 093d
00000330: 16f5 2ebd 09af 7dbd 0ba8 d7bd 72c9 5ebd
00000340: fb2e 9c3d 1da4 863d c1cf 2bbd 47be 7bba
00000350: 322e 5e3d 4bb0 333d 7bdb 0e3d 313b 703d
00000360: e46a e23d e72d f33d 7da0 92bc d10a 9f3d
00000370: a840 cabd 9bf8 353d 4161 fbbd dd8d 1a3d
00000380: 34b7 223d dee2 0fbd 86c1 e4bd 0a52 03bd
00000390: e79d 77ba 1f68 023e f997 e1bd 400c 733b
000003a0: 2dac a03d dbab bd3d e061 303d 363b d53d
000003b0: bf04 473d ef35 a2bb 2828 273c 7af0 f33d
000003c0: 3704 61bd e3d9 8bbd 5a4a 833d a05d 053d
000003d0: b030 bdbb 80b7 5f3d 04f5 8ebd fcc9 89bd
000003e0: a8ee 7cbc d68c 2abd 4823 913c bc8e fbbc
000003f0: 081e aa3c 7225 15bd c3c0 9cbd 7caa d93d

encoder.part2_integrator.fc_layer.bias f4 [48]
0.12866098 -0.008084841 -0.09074879 0.063847765 0.09929652 0.032640368 -0.051823996 -0.097692534
-0.016543888 -0.09809159 -0.08226056 -0.060948383 -0.04779934 -0.09301806 -0.017861212 0.025739491
-0.1057945 0.07191053 0.0479354 -0.062933005 0.002982542 0.026170015 0.039450414 0.03389788
0.026871921 0.021292737 -0.0072861295 -0.077895045 -0.068594456 0.06600308 -0.006305784 -0.07324718
-0.020750739 0.04265289 -0.07891514 0.027989361 -0.04864472 0.028776783 -0.058490004 0.09305875
0.070121214 0.096599765 -0.016576119 0.08440686 -0.013667158 -0.06315826 0.018248174 -0.06565702
00000000: b4bf 033e 4876 04bc 80da b9bd 9ec2 823d
00000010: f95b cb3d e8b1 053d 6645 54bd 0613 c8bd
00000020: 0c87 87bc 3ee4 c8bd 3978 a8bd 03a5 79bd
00000030: 3ec9 43bd 4180 bebd ad51 92bc a0db d23c
00000040: c9aa d8bd d445 933d e957 443d 05e3 80bd
00000050: c076 433b 8062 d63c c296 213d 81d8 0a3d
00000060: 8122 dc3c 1b6e ae3c 7cc0 eebb 7087 9fbd
00000070: 407b 8cbd 9f2c 873d c0a0 cebb 9e02 96bd
00000080: 74fd a9bc ccb4 2e3d 439e a1bd f249 e53c
00000090: b03f 47bd 4abd eb3c 3793 6fbd 9695 be3d
000000a0: b69b 8f3d 19d6 c53d a4ca 87bc 81dd ac3d
000000b0: 37ec 5fbc 1e59 81bd 327d 953c 3077 86bd

encoder.part3_convoluter.conv1d.weight f4 [96, 48, 3]
0.009046619 0.06548406 0.0432819 -0.046680756 -0.01606654 0.082782805 -0.03010907 0.108427495
0.002926787 0.07872962 0.002507329 0.07311993 -0.04451009 0.005052955 0.088585556 -0.0709223
0.080819525 0.01701852 0.0034036748 -0.0067188325 -0.034891155 -0.06219273 0.117581375 -0.0424914
-0.058902066 0.03545647 0.07842658 0.003786534 0.08066893 -0.034467828 -0.060355324 -0.013557086
0.041880686 -0.027423069 0.059195757 -0.042490736 0.008970596 -0.046193432 -0.054934572 -0.04199595
0.10472107 0.030785738 0.017933061 0.037649572 0.059498504 -0.033370875 -0.036328685 0.013068348
-0.048816066 -0.07237848 -0.0075096563 -0.029460013 0.025344908 0.017496884 0.038258363 0.08084013
0.052119497 -0.08079343 0.07857422 -0.0023761317 0.07946206 -0.037368238 0.007231958 -0.059035372
0.067115165 -0.06932354 -0.0022009078 0.0701662 0.07086933 -0.028936312 -0.09566616 -0.07130967
0.008188153 0.030789547 -0.02153533 -0.0642781 0.06453478 -0.0010743455 -0.02466622 0.06097095
0.06440482 -0.032681525 -0.07680927 -0.049912613 0.010656629 0.08219293 -0.0049361945 0.0149914995
0.062072076 0.08142697 -0.011200637 -0.023182593 -0.05678034 -0.014388293 -0.04911553 0.07984684
0.026657276 0.06732569 -0.025965802 -0.0033322796 -0.054544896 -0.06712066 0.0040873443 -0.034763753
-0.084501654 0.030174254 -0.05939936 0.015210661 -0.048671767 -0.024041213 -0.027033621 -0.027239313
0.05958498 -0.0077064494 -0.0055778846 0.0076285675 -0.08349215 -0.002684432 -0.026132768 0.04161576
0.06889807 0.05670196 0.059327953 0.008158867 0.0313079 -0.053641535 0.07682175 0.078478806
0.033757932 -0.02623161 -0.013797535 -0.04716123 0.03615597 -0.030567935 0.08051522 -0.07535123
0.06631709 0.050518937 -0.021427665 -0.009683112 -0.021228183 0.055593 -0.04125303 -0.034492575
-0.05764467 0.08865638 0.05836391 -0.055721946 0.022991965 0.045931797 0.005152852 -0.042504884
-0.06570142 0.042544283 0.06961604 0.026463665 0.07153749 -0.02626582 0.023592528 -0.0044031367
0.06785575 -0.08037191 -0.0032112205 -0.018991975 -0.04952196 0.006989614 0.074787825 0.04158697
0.00020813942 -0.008265786 0.012479104 0.054369755 0.06434227 0.0072306767 -0.07122233 0.074225396
0.03004963 -0.042612802 -0.013624819 0.08824374 -0.035147063 0.07803888 -0.021668255 -0.031493507
0.08380804 -0.01575073 -0.08509672 -0.005676087 0.031145254 0.027048074 0.033251174 0.07028081
-0.001056008 -0.0601193 -0.0050744936 -0.016075648 0.06062881 -0.030059487 -0.07555027 -0.035625383
-0.059727103 0.077519216 0.027451523 0.08292393 -0.059581153 -0.028277807 -0.05529108 -0.04205042
0.023232885 0.020442866 0.034705184 0.011066999 0.0078746425 -0.06965496 0.0675331 -0.089560196
-0.0068126516 0.09739309 0.006650952 0.07978338 -0.038746856 -0.027359288 0.08126301 -0.040457837
-0.040480834 0.03270819 0.049532868 0.020030327 0.021576062 0.011482856 0.07013274 0.068698056
0.024393747 0.02229133 -0.07511528 0.077415444 0.039370954 -0.07328485 -0.02095788 -0.048786454
0.08285708 0.008945607 -0.052687645 0.055387713 0.06730614 -0.037473977 -0.009958511 0.058966942
-0.091980435 0.030806467 0.07281025 0.045115396 0.026120147 -0.04978354 0.057224523 -0.016367601
00000000: 4538 143c 821c 863d 5d48 313d 5234 3fbd
00000010: fa9d 83bc 088a a93d 4ca7 f6bc 3c0f de3d
00000020: 56cf 3f3b ff3c a13d 0052 243b e7bf 953d
00000030: 3650 36bd 4293 a53b 586c b53d b63f 91bd
00000040: b584 a53d 6c6a 8b3c 3010 5f3b a729 dcbb
00000050: 07ea 0ebd cebd 7ebd 81ce f03d 760b 2ebd
00000060: 4b43 71bd ce3a 113d 1d9e a03d 8027 783b
00000070: c135 a53d 232e 0dbd 2537 77bd 8a1e 5ebc
00000080: 158b 2b3d 58a6 e0bc 4077 723d c40a 2ebd
00000090: 68f9 123c 5335 3dbd 1303 61bd f203 2cbd
000000a0: 0078 d63d 5f32 fc3c 5be8 923c 7036 1a3d
000000b0: b4b4 733d e6af 08bd 63cd 14bd a01c 563c
000000c0: 5bf3 47bd 2b3b 94bd 9013 f6bb 2056 f1bc
000000d0: 20a0 cf3c a055 8f3c cdb4 1c3d 838f a53d
000000e0: 417b 553d 0777 a5bd 85eb a03d e0b8 1bbb
000000f0: 01bd a23d 700f 19bd 10fa ec3b 13cf 71bd
00000100: ad73 893d 80f9 8dbd 1b3d 10bb 4cb3 8f3d
00000110: f023 913d d80b edbc 9fec c3bd ce0a 92bd
00000120: 9a27 063c 5c3a fc3c dc6a b0bc 3da4 83bd
00000130: d02a 843d 0ed1 8cba d010 cabc adbc 793d
00000140: ade6 833d 10dd 05bd 2e4e 9dbd 2b71 4cbd
00000150: 2499 2e3c c454 a83d cdbf a1bb e89e 753c
00000160: 4a3f 7e3d 2fc3 a63d e082 37bc 6ce9 bdbc
00000170: 8092 68bd e0bc 6bbc 5e2d 49bd bd86 a33d
00000180: 5c60 da3c 0de2 893d 3cb6 d4bc 6062 5abb
00000190: 786a 5fbd 8e76 89bd 21ef 853b 7064 0ebd
000001a0: 340f adbd ff2f f73c be4c 73bd 2336 793c
000001b0: 0c5c 47bd 14f2 c4bc 9d75 ddbc fb24 dfbc
000001c0: 610f 743d 6286 fcbb b0c6 b6bb 10f9 f93b
000001d0: effd aabd 4ced 2fbb 6314 d6bc 4a75 2a3d
000001e0: 6e1a 8d3d 5040 683d de01 733d c5ac 053c
000001f0: b63c 003d 3ab7 5bbd b954 9d3d 7fb9 a03d
00000200: c245 0a3d ace3 d6bc 0e0f 62bc 222c 41bd
00000210: 4818 143d 9b69 fabc 2ae5 a43d bf51 9abd
00000220: 41d1 873d f2ec 4e3d 1289 afbc eaa5 1ebc
00000230: bae6 adbc 7cb5 633d f0f8 28bd 1648 0dbd
00000240: d11c 6cbd 7a91 b53d ff0e 6f3d b23c 64bd
00000250: a559 bc3c fb22 3c3d 41d9 a83b 9a19 2ebd
00000260: 778e 86bd ea42 2e3d db92 8e3d 54ca d83c
00000270: 3f82 923d 6b2b d7bc 1e45 c13c 3048 90bb
00000280: f5f7 8a3d 079a a4bd 5773 52bb 0f95 9bbc
00000290: 8ad7 4abd 2209 e53b 5c2a 993d 1957 2a3d
000002a0: 0040 5a39 386d 07bc 2875 4c3c d2b2 5e3d
000002b0: e1c5 833d 50ef ec3b 03dd 91bd 7c03 983d
000002c0: a42a f63c c38a 2ebd a23a 5fbc 22b9 b43d
000002d0: 5ef6 0fbd d9d2 9f3d a081 b1bc 56ff 00bd
000002e0: 8da3 ab3d ad07 81bc 3047 aebd 78fe b9bb
000002f0: 5524 ff3c ec93 dd3c 6232 083d 63ef 8f3d
00000300: c069 8aba a83f 76bd f047 a6bb 14b1 83bc
00000310: ea55 783d 503f f6bc 1aba 9abd eceb 11bd
00000320: 68a4 74bd 65c2 9e3d 04e2 e03c 05d4 a93d
00000330: 5e0b 74bd dca6 e7bc e678 62bd 103d 2cbd
00000340: e452 be3c cc77 a73c 0627 0e3d 5c52 353c
00000350: a504 013c 42a7 8ebd cb4e 8a3d 566b b7bd
00000360: aa3c dfbb 0776 c73d 3bf0 d93b 7865 a33d
00000370: 06b5 1ebd 9620 e0bc 396d a63d 1eb7 25bd
00000380: 3bcf 25bd 06f9 053d fae2 4a3d a416 a43c
00000390: 48c0 b03c 9722 3c3c c1a1 8f3d 91b1 8c3d
000003a0: 65d5 c73c 4f9c b63c 0ad6 99bd fd8b 9e3d
000003b0: 7043 213d 5e16 96bd dcaf abbc 4ed4 47bd
000003c0: f9b0 a93d 9890 123c 00cf 57bd 3ade 623d
000003d0: cdd7 893d 507e 19bd 0629 23bc 5287 713d
000003e0: 3d60 bcbd d85d fc3c 8a1d 953d ecca 383d
000003f0: ebf9 d53c d3e9 4bbd 4364 6a3d 5915 86bc

encoder.part3_convoluter.conv1d.bias f4 [96]
-0.007237084 -0.05572186 0.005085764 0.030985245 0.08445856 -0.036887728 0.059967548 0.050419983
-0.016350267 -0.02593603 0.008555643 -0.021764195 -0.04137667 -0.07268573 0.014541857 -0.0817152
0.028106116 0.020558827 -0.017656684 -0.098729044 -0.045576014 0.05435136 0.022320269 0.046244524
-0.07325017 -0.0064129177 0.035116635 -0.03427158 -0.018696625 -0.024764527 -0.029840862 -0.043801572
0.043684848 -0.07345756 -0.0633137 0.02554043 -0.0035583784 -0.027090881 -0.040051736 -0.051319737
-0.07914113 0.07037788 -0.03874524 -0.026152859 0.026001753 0.08278711 0.046212472 -0.025511954
-0.011024955 0.012328021 -0.07346052 -0.018655539 0.013161222 0.061683413 0.04705359 -0.065297216
0.047721278 0.03336851 0.016153656 0.017720152 0.07209169 -0.020592067 -0.052464444 0.03501688
-0.069232315 -0.017700024 0.006538767 -0.058797993 -0.06282219 -0.036816943 0.0067217574 -0.0533245
-0.04502926 -0.07290244 0.011315855 -0.005245123 -0.05441844 0.04081286 -0.051523797 -0.03271235
-0.0037311332 0.021125853 -0.0153175555 0.0689934 -0.06095085 -0.054686397 0.01830247 -0.05467661
-0.013803486 -0.07277186 0.032936964 0.06885735 0.085758395 0.049661245 -0.07513734 -0.016382223
00000000: 1025 edbb 9b3c 64bd 7ba6 a63b c5d4 fd3c
00000010: 9cf8 ac3d 9617 17bd 88a0 753d 2f85 4e3d
00000020: fff0 85bc cc77 d4bc f82c 0c3c d34a b2bc
00000030: 957a 29bd 42dc 94bd f840 6e3c 4c5a a7bd
00000040: cc3e e63c fc6a a83c c0a4 90bc 7432 cabd
00000050: eaad 3abd 889f 5e3d ffd8 b63c e66a 3d3d
00000060: 2f04 96bd 7423 d2bb 76d6 0f3d 5b60 0cbd
00000070: aa29 99bc fade cabc d374 f4bc 4769 33bd
00000080: e2ee 323d eb70 96bd 9daa 81bd 2a3a d13c
00000090: af33 69bb b2ed ddbc 4a0d 24bd a534 52bd
000000a0: bf14 a2bd 4722 903d 54b3 1ebd 853e d6bc
000000b0: a101 d53c 4a8c a93d 4a49 3d3d 72fe d0bc
000000c0: 03a2 34bc 78fb 493c 7872 96bd 80d3 98bc
000000d0: 2ba2 573c bfa7 7c3d 44bb 403d 8cba 85bd
000000e0: 6377 433d 6bad 083d ac54 843c da29 913c
000000f0: cfa4 933d b2b0 a8bc f5e4 56bd dc6d 0f3d
00000100: acc9 8dbd a4ff 90bc 2743 d63b 2ad6 70bd
00000110: eca8 80bd 5dcd 16bd 3042 dc3b ca6a 5abd
00000120: 9a70 38bd e04d 95bd 2366 393c 48df abbb
00000130: dfe5 5ebd 632b 273d 9e0a 53bd 63fd 05bd
00000140: 0786 74bb 2010 ad3c 7cf6 7abc 694c 8d3d
00000150: 99a7 79bd d8fe 5fbd 10ef 953c 95f4 5fbd
00000160: 0428 62bc 6a09 95bd e9e8 063d 1505 8d3d
00000170: 19a2 af3d 9769 4b3d 9be1 99bd 0334 86bc

decoder.initial_d0_star_h f4 [1, 1, 70]
-0.07227837 -0.086042434 0.036137108 0.17021105 0.03321021 0.048354648 0.043446515 -0.14249946
0.10967788 0.021099064 0.033580404 -0.06370301 0.055178862 0.119044185 -0.08394098 0.044261895
-0.12473608 -0.094595775 0.09299079 0.020231446 0.31580335 0.13239339 -0.20889492 0.034370534
0.1557991 0.09331349 0.09636316 0.07692441 -0.042135462 0.077084854 -0.08773496 -0.1562495
-0.09060943 -0.2643843 0.16980211 0.13693665 0.03572914 -0.04303025 0.13484205 0.019007722
0.24190311 0.052519836 0.014717918 0.14839011 0.11217365 -0.08435244 -0.082303636 0.0030567604
-0.058063794 0.013269767 0.03733899 -0.04243027 -0.09728867 -0.013858583 0.015206056 0.02831154
0.050977692 0.03933378 0.061854742 -0.035673406 0.00049654895 -0.031641394 -0.178189 0.06407411
-0.039303746 0.07794991 0.048488103 -0.052501567 0.13815008 0.16011254
00000000: af06 94bd 0437 b0bd 8104 143d ce4b 2e3e
00000010: 6e07 083d 860f 463d f9f4 313d 61eb 11be
00000020: cc9e e03d f2d7 ac3c 9b8b 093d b976 82bd
00000030: 3b03 623d 70cd f33d 40e9 abbd f64b 353d
00000040: a175 ffbd 6ebb c1bd f571 be3d 6bbc a53c
00000050: fab0 a13e 2292 073e 8de8 55be 1ec8 0c3d
00000060: cd89 1f3e 251b bf3d 0c5a c53d 8c8a 9d3d
00000070: 3c96 2cbd aade 9d3d 63ae b3bd deff 1fbe
00000080: 7091 b9bd 615d 87be 9be0 2d3e 1f39 0c3e
00000090: b858 123d 7d40 30bd 0914 0a3e 15b6 9b3c
000000a0: 73b5 773e 0a1f 573d 6c23 713c 94f3 173e
000000b0: 4cbb e53d f9c0 acbd cf8e a8bd ee53 483b
000000c0: 4dd4 6dbd 7069 593c c5f0 183d 5dcb 2dbd
000000d0: 483f c7bd 1c0f 63bc d222 793c 9aed e73c
000000e0: fccd 503d 751c 213d 665b 7d3d 471e 12bd
000000f0: d62a 023a 689a 01bd 2d77 36be 4939 833d
00000100: f7fc 20bd 34a4 9f3d 769b 463d e20b 57bd
00000110: 3777 0d3e 8bf4 233e

decoder.initial_d0_star_c f4 [1, 1, 70]
-0.22906283 0.1849502 -0.20864779 0.037048243 -0.12894681 -0.064362325 0.06690207 0.015142292
-0.0043348717 -0.085463084 0.14377183 -0.08136749 0.06636794 -0.03161417 0.16109382 -0.02818295
0.042738203 -0.04830585 0.07177384 0.001939292 0.05963477 0.07393697 0.017874138 0.08997803
0.02580487 0.049714714 0.07660922 -0.09322096 -0.055279106 0.030480456 -0.03292543 0.06292558
-0.119942345 -0.13661474 -0.20038179 0.0019050373 -0.06476707 0.0032827586 -0.050982278 -0.015868766
0.11001731 0.20368524 0.023672193 -0.0031654306 -0.024789872 0.13946943 0.014773346 0.23554204
0.03723827 0.0597153 -0.0867243 -0.1285314 0.10832133 0.13566977 -0.00025820293 -0.021283662
-0.05405608 -0.068093054 0.015339994 0.15395613 0.18953143 -0.103117436 0.060074512 0.030044872
-0.0262074 0.059609614 0.09183635 0.10742733 0.27327424 0.06556152
00000000: 728f 6abe 9663 3d3e c4a7 55be e6bf 173d
00000010: a20a 04be 65d0 83bd f403 893d 6017 783c
00000020: 8a0b 8ebb 4507 afbd ec38 133e 00a4 a6bd
00000030: eaeb 873d dc7d 01bd c7f5 243e eedf e6bc
00000040: 410e 2f3d 5bdc 45bd 2afe 923d d72f fe3a
00000050: 9743 743d 446c 973d c96c 923c 6746 b83d
00000060: bc64 d33c a8a1 4b3d 4be5 9c3d a1ea bebd
00000070: 586c 62bd 26b2 f93c d1dc 06bd 20df 803d
00000080: 55a4 f5bd bce4 0bbe e230 4dbe 72b2 f93a
00000090: 99a4 84bd 8d23 573b cbd2 50bd 37ff 81bc
000000a0: c150 e13d dd92 503e 30ec c13c 1d73 4fbb
000000b0: 2114 cbbc 13d1 0e3e e70b 723c ef31 713e
000000c0: 2887 183d 0898 743d 839c b1bd bc9d 03be
000000d0: 93d7 dd3d 04ed 0a3e 695f 87b9 135b aebc
000000e0: e869 5dbd 5f74 8bbd 9954 7b3c ada6 1d3e
000000f0: 8714 423e 3c2f d3bd b110 763d aa20 f63c
00000100: e7b0 d6bc 3629 743d b214 bc3d dc02 dc3d
00000110: 9aea 8b3e 1e45 863d

decoder.ptr_raw_learnable f4 [1, 25]
0.021495784 0.0725558 -0.015304326 0.08321669 0.0125506455 0.048674043 0.02952274 0.078484535
0.10033794 0.12923019 0.15492798 0.062463988 0.024634391 0.11980283 0.07349393 -0.20326571
-0.05809252 -0.09278761 0.056242425 0.0832872 -0.096260495 -0.077874556 -0.16116281 0.039688233
-0.10215645
00000000: ed17 b03c 2398 943d ffbe 7abc 836d aa3d
00000010: 39a1 4d3c 6f5e 473d acd9 f13c 80bc a03d
00000020: fa7d cd3d eb54 043e 71a5 1e3e 3dda 7f3d
00000030: 10ce c93c 305b f53d fc83 963d e324 50be
00000040: 6cf2 6dbd 6e07 bebd 755e 663d 7b92 aa3d
00000050: 3924 c5bd b27c 9fbd dd07 25be 2190 223d
00000060: 6737 d1bd

decoder.step1_stage.pt_encoder.embedding.weight f4 [30, 2]
-0.62238616 -0.037621833 -0.68082476 -0.45067012 0.23905458 -0.6701554 -0.3406035 -0.3223831
0.5294352 -0.21795762 -0.6443112 0.71094894 0.029109778 -0.19742619 0.4464029 -0.33548796
0.6544948 0.27798036 0.6448836 0.6009784 -0.25012532 0.060818773 -0.21077983 0.24661772
-0.17557034 -0.6335242 -0.67815393 0.06388196 -0.52059793 -0.20357114 -0.3659056 -0.69454706
-0.7023084 -0.57146674 -0.61344814 0.41893595 0.2554502 0.6847202 -0.29287955 -0.45450354
0.1704408 0.5782492 0.13373967 0.4546196 -0.63174194 -0.10299008 -0.2999835 -0.20189492
0.089031465 0.39339674 -0.71822613 -0.125297 -0.2752209 -0.32584086 0.027715567 0.5000786
0.14087473 -0.32248062 -0.54446733 0.5615399
00000000: b354 1fbf 5a19 1abd 884a 2ebf 3cbe e6be
00000010: b9ca 743e 4e8f 2bbf 9563 aebe 660f a5be
00000020: 1189 073f 4830 5fbe 94f1 24bf c000 363f
00000030: a177 ee3c 172a 4abe ec8e e43e 14c5 abbe
00000040: f98c 273f 7153 8e3e 1717 253f b8d9 193f
00000050: 6d10 80be 1b1d 793d abd6 57be 5b89 7c3e
00000060: b6c8 33be a42e 22bf 7f9b 2dbf 8cd4 823d
00000070: e845 05bf f474 50be fb57 bbbe d6cd 31bf
00000080: 7cca 33bf a54b 12bf f00a 1dbf c67e d63e
00000090: 5eca 823e d349 2f3f 4ff4 95be b0b4 e8be
000000a0: 0888 2e3e 2408 143f 0df3 083e e6c3 e83e
000000b0: d7b9 21bf 77ec d2bd 7097 99be 8bbd 4ebe
000000c0: 2156 b63d 4c6b c93e abdd 37bf db4d 00be
000000d0: c1e9 8cbe 9dd4 a6be c20b e33c 2705 003f
000000e0: 7741 103e 2e1c a5be 3662 0bbf 14c1 0f3f

decoder.step1_stage.pt_encoder.embedding.bias f4 [30]
0.41381875 0.41336626 -0.08233111 0.60790133 -0.6002163 0.60104704 0.060163863 0.5725646
0.052000497 0.52492195 -0.6660433 -0.11812823 -0.07717872 -0.29580078 -0.58917654 -0.10750984
0.084121 -0.54047817 -0.49313462 -0.3247345 0.47470677 0.364835 0.7002569 -0.053981382
-0.27258554 -0.07001059 -0.70749074 -0.30205426 -0.62377524 0.5394639
00000000: 0de0 d33e bea4 d33e 379d a8bd 6c9f 1b3f
00000010: c7a7 19bf 38de 193f 626e 763d 9893 123f
00000020: 79fe 543d 4961 063f d081 2abf 37ed f1bd
00000030: e00f 9ebd 3373 97be 46d4 16bf 1e2e dcbd
00000040: a147 ac3d c75c 0abf 247c fcbe 9a43 a6be
00000050: c40c f33e a7cb ba3e 0944 333f 951b 5dbd
00000060: 5590 8bbe b661 8fbd 1d1e 35bf dba6 9abe
00000070: bcaf 1fbf 4e1a 0a3f

decoder.step1_stage.pt_encoder.rnn.weight_ih_l0 f4 [50, 30]
-0.071456656 -0.028868739 0.08273686 0.14719725 0.055738438 0.05382893 0.13869321 -0.04287918
0.06619605 -0.107425235 0.046833977 0.06278575 -0.14391077 -0.011917816 -0.09014076 -0.14969288
-0.026113518 -0.0053327964 0.10459516 -0.13119614 0.07973776 0.0031880806 0.14109541 0.034452524
0.018849634 -0.14335011 0.06879121 0.12024332 -0.14584513 0.04121798 -0.10262481 -0.07086603
-0.13424502 0.042687427 0.07790822 0.00295065 -0.12654525 0.13228574 -0.037047047 0.11448772
0.046242956 -0.046460815 -0.13022566 0.005875258 -0.08270866 0.054475863 0.099141106 -0.09256779
-0.0083157355 0.08075281 -0.04620042 -0.020052487 0.07453348 -0.042690825 -0.071887925 0.03987683
-0.1250729 -0.024349878 -0.14641513 0.10942974 -0.09961292 -0.10018053 -0.004951411 -0.11874117
0.021845035 0.06334965 -0.029010467 -0.104308255 -0.10103709 0.11920271 -0.03550289 0.12419346
0.05659063 0.033399403 0.031763617 0.11832489 0.09599143 -0.106698014 -0.0922453 -0.03760677
-0.034138262 0.04328629 -0.051673427 0.010763069 -0.10194853 -0.039423447 0.08992667 0.11207433
-0.06494362 -0.010584118 0.048145548 -0.0017929104 0.0575805 0.1325344 0.10335211 -0.10282215
0.12911747 -0.146906 -0.0014780869 0.03622874 0.023719776 -0.021202672 0.038164303 0.008931777
0.12159444 -0.049102843 0.014573258 0.014346567 -0.12518913 -0.115841135 0.070534855 0.04226035
0.044819664 -0.13035527 -0.10707253 0.05994065 -0.124653235 0.03038715 -0.063469395 -0.07948586
-0.03301593 -0.08111571 -0.105316006 -0.11633982 -0.13442968 0.12392524 0.12080571 0.019940702
-0.06411384 -0.07075131 -0.038369928 -0.15720762 0.12788868 -0.12887752 -0.042267885 -0.029820396
-0.12213252 -0.055670567 0.0116170645 -0.09251896 -0.12059083 0.115824334 -0.07594308 -0.07306222
-0.11547137 -0.109216064 -0.06345404 -0.11106957 -0.15217425 0.010406342 0.011396972 0.10573302
-0.016513275 0.01905674 0.08230723 -0.09837513 0.017118234 0.09846198 -0.0638509 0.07220137
0.11987673 -0.025675453 -0.011432077 0.11411798 0.0013586954 0.012523226 0.07979997 -0.010472649
-0.060569614 -0.14169332 -0.12665194 -0.081291705 -0.12649912 -0.10247526 0.030189067 0.0102971
-0.053023357 0.03019005 0.12546445 0.053553414 -0.04168732 0.05482138 0.07788764 -0.008141372
-0.104817696 0.08817832 -0.09955385 0.082614854 -0.1173726 -0.0827997 -0.09448559 0.08989575
-0.059551276 0.04513698 -0.032641344 0.032224458 -0.04690353 -0.046080243 -0.00074017106 -0.12017923
-0.11888544 -0.099057384 -0.09268579 0.025881095 0.050453957 0.05954786 0.14958185 0.06464048
0.027757382 0.0074887597 0.02020932 -0.004566748 -0.029046673 0.097518645 -0.11856534 -0.06391219
0.011008413 -0.0022734532 0.09995043 0.10508592 0.0882041 0.14109565 -0.0441635 0.093845375
-0.03865071 0.044685278 0.005104111 -0.05729524 -0.03149667 -0.06971436 0.0696851 0.09536517
-0.119638644 -0.06844758 -0.14211784 0.11861584 0.13007796 -0.05671265 -0.033785615 -0.038186196
0.0918983 -0.06127398 -0.08604372 0.100012414 0.08065987 0.0028731283 0.06062565 0.13674843
0.083445445 -0.11807918 0.023893379 0.102771625 -0.082900696 0.076382 -0.104102135 -0.14935215
00000000: de57 92bd 227e ecbc f171 a93d e0ba 163e
00000010: fd4d 643d b97b 5c3d 9805 0e3e 14a2 2fbd
00000020: cb91 873d c301 dcbd fcd4 3f3d d195 803d
00000030: 585d 13be f142 43bc b89b b8bd 1749 19be
00000040: 04ec d5bc bdbe aebb fd35 d63d 4858 06be
00000050: 8d4d a33d 1eef 503b 517b 103e 171e 0d3d
00000060: 8c6a 9a3c 5fca 12be 68e2 8c3d 2142 f63d
00000070: 6d58 15be 2fd4 283d f52c d2bd 3622 91bd
00000080: 8777 09be 03d9 2e3d 588e 9f3d b15f 413b
00000090: 1495 01be ea75 073e a5be 17bd 8a78 ea3d
000000a0: 4169 3d3d b24d 3ebd e059 05be 3c85 c03b
000000b0: 2863 a9bd 1522 5f3d 7e0a cb3d 2e94 bdbd
000000c0: b93e 08bc bb61 a53d a73c 3dbd 1d45 a4bc
000000d0: 02a5 983d 93dc 2ebd fa39 93bd e355 233d
000000e0: 1c13 00be 6579 c7bc d9ed 15be b31c e03d
000000f0: dc01 ccbd 732b cdbd 723f a2bb 922e f3bd
00000100: 5cf4 b23c 76bd 813d 5ca7 edbc 919f d5bd
00000110: 89ec cebd 8d20 f43d 7a6b 11bd 2459 fe3d
00000120: 94cb 673d d0cd 083d 911a 023d 5254 f23d
00000130: 2897 c43d 7d84 dabd 1beb bcbd 8e09 1abd
00000140: 90d4 0bbd f74c 313d 84a7 53bd 9557 303c
00000150: 64ca d0bd 7b7a 21bd 792b b83d 3a87 e53d
00000160: 2901 85bd 0269 2dbc 4434 453d 1700 ebba
00000170: 88d9 6b3d 19b7 073e 45aa d33d 6b94 d2bd
00000180: 5f37 043e 876e 16be 5ebc c1ba 9664 143d
00000190: fa4f c23c 3ab1 adbc 2c52 1c3d 9756 123c
000001a0: 8106 f93d 1020 49bd adc4 6e3c dd0d 6b3c
000001b0: 9431 00be 1e3e edbd 9474 903d 3019 2d3d
000001c0: d394 373d da7b 05be d848 dbbd 5484 753d
000001d0: 324a ffbd 79ee f83c 3efc 81bd 7cc9 a2bd
000001e0: b63b 07bd fe1f a6bd ebaf d7bd 9243 eebd
000001f0: efa7 09be 84cc fd3d fc68 f73d af5a a33c
00000200: 1e4e 83bd 10e6 90bd c929 1dbd 09fb 20be
00000210: 40f5 023e 78f8 03be 1721 2dbd e749 f4bc
00000220: 9d20 fabd d206 64bd 8055 3e3c 957a bdbd
00000230: 53f8 f6bd 4f35 ed3d 0c88 9bbd a5a1 95bd
00000240: 417c ecbd acac dfbd 31f4 81bd 7178 e3bd
00000250: 91d3 1bbe 5d7f 2a3c 5eba 3a3c 8e8a d83d
00000260: d946 87bc e11c 9c3c b190 a83d e678 c9bd
00000270: 8a3b 8c3c 6fa6 c93d 43c4 82bd 50de 933d
00000280: ee81 f53d 5455 d2bc 9b4d 3bbc b0b6 e93d
00000290: 4116 b23a 382e 4d3c 2b6e a33d 7995 2bbc
000002a0: d817 78bd 0e18 11be 0cb1 01be 447c a6bd
000002b0: fc88 01be 8dde d1bd 104f f73c 2bb5 283c
000002c0: 052f 59bd 2051 f73c c179 003e d35a 5b3d
000002d0: 53c0 2abd 628c 603d 8e83 9f3d 6463 05bc
000002e0: a9aa d6bd d696 b43d e4e2 cbbd fa31 a93d
000002f0: 0c61 f0bd e492 a9bd a981 c1bd 431b b83d
00000300: 0aec 73bd 8ee1 383d eeb2 05bd cbfd 033d
00000310: ea1d 40bd a3be 3cbd 0a08 42ba 8720 f6bd
00000320: 367a f3bd 99de cabd 0cd2 bdbd 9704 d43c
00000330: cfa8 4e3d 75e8 733d fc2b 193e 3a62 843d
00000340: 7363 e33c 4564 f53b 048e a53c a9a4 95bb
00000350: 4af3 edbc dbb7 c73d 63d2 f2bd 65e4 82bd
00000360: a15c 343c 37fe 14bb d0b2 cc3d 4937 d73d
00000370: 5aa4 b43d 617b 103e c9e4 34bd 0132 c03d
00000380: 3550 1ebd e907 373d 6340 a73b 6aae 6abd
00000390: a702 01bd 67c6 8ebd 10b7 8e3d d04e c33d
000003a0: 1b05 f5bd 3f2e 8cbd 5787 11be ddec f23d
000003b0: 2833 053e 864b 68bd c962 0abd 2169 1cbd
000003c0: 2d35 bc3d 6dfa 7abd b137 b0bd 4fd3 cc3d
000003d0: 0031 a53d 184b 3c3b 9a52 783d c807 0c3e
000003e0: 72e5 aa3d 7fd3 f1bd 0cbc c33c ee79 d23d
000003f0: d7c7 a9bd 2b6e 9c3d 8033 d5bd c5ef 18be
