duedate_pretrained_critic copy.pth (torch, 284084 bytes, 9 tensors)

conv_layers.0.weight f4 [64, 96, 3]
00000000: d4dc 8c3e 6ea1 b13e af27 af3e 983b 00bd
00000010: 285a 98bc b018 713b 8840 90bc a8f7 fabb
00000020: dbab 163d 8171 4c3d bd96 013d 86b1 bd3c
00000030: c76e 243d 88e1 febc 9f0d 193d eec6 be3e
00000040: 7fd0 923e 7549 b53e f4c8 c53e 8c1c b83e
00000050: a20a 833e 3442 923e 02de 9c3e 56fd a23e
00000060: 9d52 c53e a74b 953e 0422 c43e df6a a93e
00000070: 4325 903e 0602 923e 4dd7 9b3e 8386 b73e
00000080: c6f6 973e 8ffb ab3e fc6a ba3e db39 973e
00000090: 7713 bc3e 9ccb b63e 3ae2 4a3e 5d68 c53e
000000a0: 1dba b13e 4254 8e3e c019 ad3e 6bf1 aa3e
000000b0: 63e5 a03e 0876 7b3e 56c8 b63e ba20 af3e
000000c0: 946a b43e 7be4 af3e 8778 9a3e 084c 8c3e
000000d0: 82b0 993e 774b b23e c2ba aa3e 0af2 bd3e
000000e0: 765e 933e 4782 b13e 6396 943e 70a8 b83e
000000f0: 6c9d b73e 8548 a83e 6416 913e 4c84 a93e
00000100: 5b24 903e ffe0 993e 2d4f 813e 7621 a33e
00000110: c616 bd3e 3c07 b03e 4ae5 9e3e 113e bf3e
00000120: 7caf 773e d3c6 943e 9973 b13e db00 02bd
00000130: fa75 553d 8e8d ce3c a4c1 143c 0323 513d
00000140: fc05 01bd 1450 9d3e 79ae 913e 3b08 9e3e
00000150: a5b7 ac3e 5af2 bd3e 6f79 963e b77d b73e
00000160: 2b02 b73e 446c 9e3e afb3 b43e 85ab 933e
00000170: 00f9 923e 4e71 9f3c e242 833c a051 cabc
00000180: 34cb a53e 792a a33e da50 953e edb8 9d3e
00000190: cf08 963e 225f 873e 523a aa3e 9476 993e
000001a0: ba82 893e 4f4f 923d a4f0 b53c f652 933c
000001b0: 37ab 6bbc f350 3cbd 1a55 3bbd 2c48 093e
000001c0: 770e c53d 6d77 4a3d f113 453d 74e1 143c
000001d0: 9706 18bd a93d 6ebc 3de7 8b3b fba9 ba3c
000001e0: 4e18 8b3e 9451 9d3e 9020 913e 8171 a03e
000001f0: 4296 8a3e 1655 a93e f424 a1bc 1e02 9fbc
00000200: f919 b5bc 9e82 553e f981 823e cb40 ab3e
00000210: 77e4 973e e356 ad3e 5e66 9e3e 3cdd b83e
00000220: 68f7 9e3e 97a1 c13e 90eb ac3e e5d4 ab3e
00000230: c584 a83e 735e 9dbc d1bc 003d 9a6f 53bd
00000240: 135e 993e d823 9f3e 774e aa3e 60da bd3e
00000250: effe a43e da66 983e 8d97 2b3d e142 6cbd
00000260: af20 263c 01c3 123d 7a7a a73e 6766 993e
00000270: ba28 3c3d 1188 633b cb53 913c 14a6 753c
00000280: fa1a 48bd 7c5b 12bd c609 a23e 1d0f c03e
00000290: 18b0 bd3e 66f9 d03d 54bd b73e 5a34 ba3e
000002a0: fac5 a63c d27f 2cbd db8e e8bc 3e4e 34bd
000002b0: b579 223d e9f0 463d 929f 933e 72b2 973e
000002c0: 0178 893e bf61 483d 8dff 453e 6fa4 323e
000002d0: cacb 963e 0d6f 9d3e a679 b63e 39f0 4c3e
000002e0: da2d 833e 646f 543e f841 b6bd d7b3 edbd
000002f0: b200 34bd 0833 983e 8b9a 9d3e 5f2a 773e
00000300: 109e d33e 2f5f ae3e 6db3 ae3e 9edc 203b
00000310: d9f4 42ba 6ccd 2ebd 5ba4 a63e b8fe d33e
00000320: 6f07 483e dab6 a1bc 852a 6a3d c4f9 283c
00000330: 7e57 8a3e 599d 9d3e 3d97 9e3e 2851 9b3b
00000340: e602 adbc f8f4 9d3b 01e5 193c 9de3 783d
00000350: 22a9 883d f39c 1a3e 2fc5 a33d 404c 0b3e
00000360: d1ce df3c 4f02 043d 0460 543c 30aa 4f3e
00000370: 330a 7c3e 6fdf 7d3e 74bf 923e b17e 933e
00000380: 0a7a 9f3e a5cf ae3e 584a bd3e 91c6 bd3e
00000390: 6deb a93e 186a a73e 2e7b c53e daa9 993e
000003a0: dcac 993e 8ceb c63e a409 9c3e 8c68 a83e
000003b0: acfa a43e 51b8 ab3e 5414 bc3e 1cf8 b33e
000003c0: ae8b c43e b2ad 953e 4106 ab3e 84c1 ac3e
000003d0: 90ac 8f3e 3552 bc3e cebe 5b3e f397 5a3e
000003e0: a2c3 8c3e 3ce1 7e3c ede2 06bd 45a6 453d
000003f0: 1646 943e 4e5a 9f3e d550 a53e b7b4 60bd
0.27512228 0.34693474 0.34209964 -0.031306833 -0.018597677 0.0036788397 -0.017608896 -0.0076589175
0.036784988 0.049912933 0.031637896 0.023155939 0.040144708 -0.031113401 0.037366506 0.37261146
0.28674695 0.35407606 0.38629878 0.3595928 0.2559405 0.28566134 0.3063813 0.31833905
0.3853959 0.2915928 0.38307202 0.3308935 0.28153428 0.2851717 0.304377 0.35844812
0.2968046 0.3359036 0.36409748 0.29536328 0.367336 0.35702217 0.19812861 0.38556185
0.34712306 0.2779866 0.33808708 0.33387312 0.31425008 0.24556744 0.3569972 0.34204656
0.35237563 0.34354004 0.3017008 0.27401757 0.30017477 0.348232 0.3334561 0.37098724
0.28783005 0.34669706 0.29020986 0.36066008 0.3586229 0.32867828 0.28337395 0.33108747
0.28152737 0.3005447 0.2525572 0.31861466 0.36931437 0.3438052 0.3103431 0.3735204
0.24188036 0.2905794 0.34658507 -0.031739097 0.052114464 0.025213983 0.009079371 0.05105878
-0.031499848 0.30725157 0.28453425 0.30865654 0.3373386 0.37098962 0.2938952 0.358381
0.35743842 0.30941975 0.35293338 0.28841797 0.28705597 0.019463208 0.016023103 -0.024697125
0.32381594 0.31868342 0.29163247 0.3080515 0.29303595 0.26439768 0.3324762 0.2997328
0.2685755 0.07144033 0.022209473 0.017983895 -0.0143840825 -0.045975637 -0.045735456 0.13406438
0.096218996 0.0494303 0.04811472 0.009086955 -0.03711566 -0.014541068 0.004269509 0.022786131
0.2716698 0.30726302 0.28345156 0.31336597 0.27067763 0.33072728 -0.019670941 -0.01941019
-0.022107111 0.20850608 0.25489786 0.3344787 0.29666492 0.33855352 0.30937475 0.36106288
0.3104813 0.37818596 0.3377347 0.33560863 0.32913795 -0.019210076 0.03143007 -0.051620103
0.29954585 0.31082034 0.3326299 0.3708067 0.3222575 0.2976597 0.041892577 -0.05768097
0.010139628 0.0358305 0.3271063 0.2996094 0.045937277 0.0034718553 0.01774015 0.014993209
-0.04885385 -0.035731778 0.31648082 0.3751153 0.3704841 0.10203819 0.35886633 0.36368066
0.020358074 -0.042114086 -0.028388431 -0.04401993 0.03966685 0.048569594 0.2883268 0.2962833
0.26849368 0.048921343 0.19335766 0.17445539 0.29452354 0.30748788 0.35639685 0.20013513
0.2562092 0.20745617 -0.08899301 -0.11606567 -0.043945976 0.29726434 0.3078197 0.24137257
0.4133153 0.34056994 0.34121266 0.002454556 -0.0007436998 -0.042676374 0.32547268 0.41405272
0.19534086 -0.01974051 0.057169456 0.010313455 0.27019876 0.3078411 0.3097476 0.004739899
-0.021119546 0.0048204623 0.009392978 0.060763944 0.066728845 0.15098934 0.07996594 0.13603306
0.027320297 0.032228764 0.012962345 0.20279765 0.24613266 0.24792264 0.28661692 0.28807595
0.31147796 0.34142795 0.36970782 0.37065557 0.33187428 0.3269813 0.3857054 0.300124
0.30014694 0.38851583 0.30476105 0.32892263 0.32222497 0.3353906 0.3673426 0.3515023
0.38387817 0.29234082 0.3340321 0.3374139 0.28061342 0.3678147 0.21459505 0.21347027
0.27493006 0.01555663 -0.032931257 0.04825427 0.2895972 0.31123585 0.32288232 -0.054859843

conv_layers.0.bias f4 [64]
00000000: f1aa b53e f493 863e e7ce ac3e b0d1 b63e
00000010: 921c 493e e1a9 983e f882 2cbc 50f3 ba3e
00000020: 37a6 983e a160 e53b aaef 7c3e 2946 a03e
00000030: 90af 9c3c 4539 523d 923c 59bd d7cd 9b3e
00000040: 2237 783e e218 b13e 8db5 f0ba 9c25 b63e
00000050: b0ef a03e 0a45 b93e 4b98 ba3e fc76 a43e
00000060: a2b3 923e 96bf 8b3e 369b bdbc f299 853e
00000070: c73c ad3e 2ffe 8a3e d850 a03e 9a9f a53e
00000080: bb93 b03e ceb8 a83e 1ae8 313e d3ed 863e
00000090: 860e 8d3c d63a ab3e c460 913e 2c4c b73e
000000a0: 8c4f 8c3e 69d4 d2bc df5b a73e bb61 8f3e
000000b0: fb8a 853e dc78 b23e 372f 953e 0998 a83e
000000c0: fd18 013d 9ffe 8c3e fd99 9a3e 3728 973e
000000d0: 8050 b63e 1cfd 57bd 39e7 b63e 3d5b 3a3d
000000e0: 3d09 9c3e baa1 3abd 4bf5 f63c 4037 c6bc
000000f0: 3872 a63e 43b4 b43e f4b2 b83e 8b68 823e
0.3548198 0.26284754 0.33751604 0.35706854 0.19639805 0.29817107 -0.010529272 0.36513758
0.29814312 0.0070000445 0.247008 0.31303528 0.019126683 0.051324148 -0.05303628 0.3043048
0.24239781 0.34589297 -0.0018364653 0.3557557 0.31432867 0.36185485 0.36444315 0.32122028
0.28652674 0.27294606 -0.0231453 0.26094013 0.33835432 0.27147052 0.3131168 0.3234833
0.3448771 0.32953495 0.17373696 0.2635332 0.01721884 0.33443326 0.2839414 0.35800302
0.2740444 -0.02573605 0.3268728 0.2800425 0.26082596 0.34857833 0.29137585 0.32928494
0.03151797 0.2753801 0.3019561 0.2952287 0.35608292 -0.05273162 0.35723284 0.045497168
0.30475798 -0.04556439 0.030146262 -0.024196267 0.32509017 0.3529378 0.3607403 0.25470385

conv_layers.2.weight f4 [128, 64, 3]
00000000: 8718 ca3e c4c0 813e 7c97 843e c253 823e
00000010: 710c 643e d9e2 6d3e 9342 ac3e 0c28 9d3e
00000020: 7130 c53e 7e7a ae3e 35e5 c13e 0fd3 993e
00000030: 24dc 5f3e abee 563e bce8 833e 9419 ac3e
00000040: 36fd af3e 1291 883e 7c36 e3bc 26bc 8abd
00000050: d056 98bb e979 9e3e 52cd 983e 451b c13e
00000060: 5c81 963e 3e32 c53e 8383 a83e f54b 76bd
00000070: 777b 783d 5992 5ebd b900 973e 9dda a33e
00000080: 785b 9e3e 7097 c93e 0d20 bc3e 22ea c83e
00000090: 6dbb 883d c31e 0f3d 18cc 5e3d dc30 6f3d
000000a0: 7b80 0ebd 5c90 78bd f099 4ebd 6c8e 753d
000000b0: 18a7 b13c 2ee6 a93e f17e c93e 2e01 983e
000000c0: 234a a63e 200d 973e 49bc a93e dd71 ca3e
000000d0: 327d 8e3e 2c40 c73e 4e47 f33c 7196 a23d
000000e0: 0e20 843d a01c b73e 2fda 8f3e 4210 ba3e
000000f0: d922 833e 33c7 a63e dcee c93e cbaf b93e
00000100: af49 8e3e 6704 b93e 0c6f b53e eae8 c33e
00000110: 79da ab3e ca01 b03e 5fa0 913e 23bf b23e
00000120: 0409 c13e 415c 983e 9ab4 9c3e e3c7 b53e
00000130: 9ee6 b33e 03ba a43e 5eae 82bd 489b 923d
00000140: 9455 b8bc 8fe3 af3e e17b 973e f898 b73e
00000150: a7c3 a43e 1eb5 b43e 660a ae3e 7337 983e
00000160: 7b81 be3e 3b31 ab3e 4aa6 803e f890 b03e
00000170: 5451 a93e bf14 9b3e c31e a03e c2f6 af3e
00000180: 2c36 ba3e b2e6 b53e 5f01 a93e a460 963e
00000190: b5f1 9f3e affb c43e da25 233e 3859 2d3e
000001a0: bd4d 8c3e e498 943e bde7 b63e 7620 c63e
000001b0: a69c 13bc 7092 78bc e350 87bd 24fc 873e
000001c0: 3a87 913e 1e35 ca3e fa6f 9b3e 445f a73e
000001d0: eec5 9f3e a0f3 823e b723 953e 88e0 b93e
000001e0: 6750 973e 45ad c03e 50cd b93e d9d0 5d3d
000001f0: 9592 11bd 9cd4 4a3d 6029 c03e 7a80 aa3e
00000200: 86fe c33e 9f3f c63e 9c1d a73e 72a1 8d3e
00000210: 02b8 c03e b2d3 bc3e c549 a33e ae5d ba3e
00000220: 83c6 ae3e 876a c13e bbc0 c03e a8f4 ac3e
00000230: 1b56 b13e e5ec bb3e 64b3 ac3e 80f0 9a3e
00000240: d2ac 463d 1a01 ed3c ed92 aa3c 93fa 8f3e
00000250: 12db a23e 7615 9d3e ad59 a23e d897 813e
00000260: 0a88 a83e e439 c73e efcd a93e 40b5 c23e
00000270: ef4e b93e 03e9 863e 3d7e b53e dd59 193d
00000280: 0d37 db3c 22a1 1fbd f58d c73e 4e4e 823e
00000290: 5013 c13e f43f 6c3d c28a 2dbd 8813 04bc
000002a0: 78f2 a13e 2a9f af3e 942a 973e 20fa 6ebc
000002b0: c0c3 1d3c e488 ccbc 8813 22bc cd93 51bb
000002c0: 834d 01bd 7245 243d ce8e 293d f802 5abc
000002d0: ece4 b03e c41d bf3e c26e c53e 3c6b c93e
000002e0: 02a2 953e 8533 bc3e 1fcf b53e 431a c03e
000002f0: 4949 8a3e a4a6 9f3e 32ad c83e c95c b53e
00000300: d82b b43e a07f a33e a558 9a3e c433 853e
00000310: b232 a13e b7e1 ac3e f065 a63e 17a0 a03e
00000320: 865e c13e f483 9b3e 9539 c53e 6cb3 803e
00000330: 78ba 883e 7905 933e 7242 643e 322d 993e
00000340: 536c ac3e d60f b73e 1c7f 253d b118 8dbd
00000350: 007b cf3c 8090 c63e d8f1 8e3e 1c6e af3e
00000360: 88b8 843e e127 c13e 9f30 843e d041 89bb
00000370: f798 0ebd e6e6 f0bc c9bf c63e 8594 8a3e
00000380: ecf9 923e 1a0b bc3e e837 853e 6a9f 9f3e
00000390: c2cb 87bd 945d 6bbc d035 93bd 789b 5d3d
000003a0: 3681 1f3d 8e8a 84bd 1e2d 2abd 30ba 55bc
000003b0: 7086 a1bc 0831 8a3e b322 913e 1024 c23e
000003c0: 2549 983e f0f0 9a3e 54bb 873e 6bfa bc3e
000003d0: 9900 af3e e0fc a53e b964 e7bc 28dc fcbc
000003e0: 0885 4c37 b377 803e b47c 8d3e 5a4d 833e
000003f0: c66b 893e 6df4 943e 27eb 993e 9933 8f3e
0.39471838 0.2534238 0.25896823 0.25454527 0.22270371 0.23231067 0.33644542 0.30694616
0.3851352 0.3407783 0.37870184 0.30043837 0.2186132 0.20989482 0.257635 0.33613265
0.34372872 0.2667318 -0.027735941 -0.06774168 -0.0046490207 0.30952385 0.29844147 0.37716118
0.29395568 0.38514894 0.32912835 -0.060131032 0.06066462 -0.054338787 0.2949274 0.32002726
0.3092916 0.3937335 0.36743203 0.3924113 0.06676374 0.034941446 0.054393858 0.058396205
-0.034790497 -0.060684547 -0.050439775 0.059950277 0.021686122 0.33183426 0.3935466 0.296884
0.32478437 0.295022 0.33151463 0.39539996 0.2782989 0.38916147 0.029697087 0.07938851
0.064514264 0.35764027 0.28096148 0.3634053 0.25612524 0.32573852 0.39440048 0.36266932
0.2779059 0.3613617 0.35436285 0.38263637 0.3356512 0.34376365 0.28442666 0.3491145
0.3770219 0.29757884 0.30606538 0.35504064 0.35136884 0.32173166 -0.06380914 0.07158524
-0.022501744 0.343533 0.295867 0.35858893 0.3218052 0.3529443 0.33992308 0.29729804
0.3720816 0.33435997 0.25126868 0.34485602 0.3306986 0.30289266 0.3127347 0.3436795
0.36369455 0.3552757 0.3300886 0.29370606 0.31239095 0.3847327 0.15932408 0.16928566
0.2740306 0.29022896 0.35723677 0.3869664 -0.009009516 -0.015171632 -0.06607225 0.26559556
0.28423482 0.3949365 0.3035887 0.3268987 0.31205696 0.25576496 0.2912881 0.36304116
0.2955353 0.37632194 0.36289454 0.05415425 -0.035540182 0.049519166 0.37531567 0.33301145
0.38280123 0.38720414 0.32639778 0.27662235 0.37640387 0.3688026 0.3189222 0.36399597
0.34135827 0.37776586 0.37647042 0.33780408 0.34636006 0.36704174 0.33730614 0.30261612
0.048504658 0.02893119 0.020822013 0.2812086 0.31807762 0.30680436 0.31709042 0.2531116
0.3291629 0.38911355 0.33164927 0.38028908 0.36193034 0.2634965 0.35447875 0.037439216
0.026759649 -0.038972028 0.38975492 0.25450367 0.37710047 0.057678178 -0.042368658 -0.008061297
0.316303 0.3430112 0.29524672 -0.014586002 0.00962919 -0.024967618 -0.009892352 -0.0031978965
-0.03156806 0.04010529 0.041395955 -0.013306372 0.34549654 0.37327397 0.38561064 0.39339626
0.29225165 0.36758056 0.35509583 0.37520036 0.27009037 0.31181824 0.39194638 0.35422352
0.351897 0.31933308 0.30145755 0.26016057 0.3148399 0.33765957 0.32499647 0.3137214
0.37767428 0.3037411 0.38520494 0.25136888 0.26704764 0.28715113 0.22290972 0.29917294
0.33676395 0.3575427 0.040404424 -0.06889475 0.025327206 0.3878212 0.27918887 0.34263694
0.25922036 0.37725738 0.25818345 -0.0041887537 -0.034813847 -0.029406976 0.38818195 0.27066436
0.287063 0.3672722 0.26019216 0.3117631 -0.066306606 -0.0143655725 -0.07187998 0.054103345
0.038941585 -0.0647174 -0.041546933 -0.013044879 -0.019717425 0.26990533 0.28346786 0.37918139
0.29743305 0.30261946 0.26510108 0.36909804 0.34180143 0.3241949 -0.02824627 -0.030866697
1.2190321e-05 0.25091323 0.27634203 0.25644952 0.26840037 0.29092732 0.3006222 0.27969053

conv_layers.2.bias f4 [128]
00000000: ba2b 753e 2d47 a13e 9c39 36bd 885e 59bd
00000010: 21dc 983e d6d1 ad3e 6f1e a63e dde9 533e
00000020: bffe 3b3e b91b 3b3e 013a 8d3e 89ad 753d
00000030: 7014 823d b96a 87bd c2f4 613e 0557 903e
00000040: 3505 4e3e 1b77 853e 0c10 5c3e 2a34 04bd
00000050: 6059 753d 1a9f 963e 0226 e23c 7b95 11bb
00000060: 9537 933e efc9 843e 6fc1 973e a5fe 893e
00000070: 1cc0 af3e 88ab 9f3b b7ed 8c3e d784 ad3e
00000080: 24fe 883e 981c ae3e 949b 823e 855d 943e
00000090: 731f 753e 76ca 6ebd 801a fc3c 2639 9a3e
000000a0: affa 9b3e 0366 8c3e 270b a3bc bb68 8c3e
000000b0: 0fce 7a3e 45c8 873e 48ee 933e b8ef 5d3e
000000c0: cf62 a33e 6e2a 5dbd d828 ddbc 149f e33c
000000d0: 0981 8c3e e349 a83e cc2a 9f3e d921 aa3e
000000e0: 4189 623e 503d ae3e d08d 9a3e 760c 773e
000000f0: 11a9 823e f775 933e e3d5 9c3e 8e88 963e
00000100: 21d9 573e 3181 793e 2a55 803e 540d a53e
00000110: 7e60 963e bf64 663e 3583 643e d582 683e
00000120: dcc0 953e b8b0 1c3c fbf7 863e 28e3 4b3e
00000130: c874 df3c ed9c 39bd 44fc 70bd bd87 9a3e
00000140: 0f9b 3b3e 6c77 ad3e 051b 7fbd 0ad4 47bd
00000150: a941 6d3e 69a5 5e3e 0802 b03e 87f8 933e
00000160: 71af 8f3e 32d4 42bd 7d1e ac3e 7732 8b3e
00000170: f888 793e 4306 a03e 5787 b53c 03f6 8b3e
00000180: e140 863e e4b5 503e d1cc 533e 9225 8a3e
00000190: 2bdd ac3e 2915 6b3e 8331 af3e 4ba0 5a3e
000001a0: edbb 6a3e cb22 903e 47cc 973e 104e 5c3e
000001b0: 75b7 6bbd 0d49 7b3e 3076 ac3e 0008 913e
000001c0: 06d9 ab3e fa57 993e cee3 a63e f3bc ae3e
000001d0: 6b73 703e 2093 993e efb5 8d3e 3d97 9f3e
000001e0: f08e 5a3e 8af9 913e ab28 563e 3d42 abbc
000001f0: 1679 903e 06ae 6c3e b8fc 883e f4cd 933e
0.23942462 0.31499615 -0.044488534 -0.053068668 0.29855445 0.33949155 0.32445094 0.2069468
0.18358897 0.18272294 0.27583316 0.05997995 0.063515544 -0.066121526 0.22066024 0.2819139
0.20119174 0.26067433 0.21490496 -0.03227631 0.059899688 0.2941826 0.027606014 -0.0022214341
0.28753343 0.25935313 0.29639766 0.2695209 0.34326255 0.004872743 0.27525112 0.3389041
0.26756394 0.3400619 0.25509322 0.289776 0.23937778 -0.05829855 0.030774355 0.30121726
0.30464694 0.2742158 -0.019902779 0.27423653 0.24492668 0.2651998 0.28892732 0.21673477
0.31911322 -0.053995542 -0.026997015 0.027785815 0.27442196 0.3286887 0.3108734 0.3322895
0.2212267 0.34031153 0.3018632 0.24125847 0.25519612 0.28800938 0.30631933 0.29401058
0.21078922 0.24365689 0.25064975 0.3223673 0.29370493 0.22499369 0.22315677 0.22706158
0.29248703 0.009563617 0.2636107 0.19910872 0.027277365 -0.04531567 -0.05883433 0.30181685
0.18320869 0.33880174 -0.062281627 -0.0487862 0.23169579 0.21742786 0.3437655 0.2890055
0.2806354 -0.047565646 0.3361701 0.2718694 0.24368656 0.31254777 0.022159262 0.2733613
0.26221374 0.20381886 0.206836 0.2698179 0.33762488 0.2295729 0.34217462 0.2135021
0.2292325 0.28151545 0.2964804 0.21514153 -0.057548005 0.24539585 0.3368392 0.28326416
0.33564013 0.29949933 0.32595676 0.34128532 0.23481528 0.2999506 0.27677867 0.31170073
0.21343589 0.28510696 0.20913951 -0.020905608 0.2821738 0.2311326 0.2675531 0.28868067

conv_layers.4.weight f4 [64, 128, 3]
00000000: 0e40 9c3e 8f85 a53e 2d98 b63e 1dc9 9d3e
00000010: 2268 be3e 6de4 b53e b4be 65bc 2fcf 9e3c
00000020: b85b 28bc 102e 063c d84a 853c 4083 17ba
00000030: f2dc aa3e 31ff b93e 485e ae3e f33b b63e
00000040: aad4 8f3e 1649 973e 867b 9c3e 2673 a93e
00000050: c863 b73e a268 993e 3988 9a3e 68a0 be3e
00000060: df1a 953e 6596 5d3e 4345 883e 24be 7e3e
00000070: a69a a83e fefa 8e3e 598c 9a3e 76a9 903e
00000080: 5523 be3e 2129 7b3c feec 1b3d 8232 aabb
00000090: d230 293c f136 2d3c 18b2 453d 93bc 1dbd
000000a0: 2639 9f3c b4f0 7abc 1b6b be3e 1162 b63e
000000b0: 4f71 bb3e c19c 9d3e fff3 a53e cdb4 973e
000000c0: 9dd7 a93e 81d4 af3e 2512 9e3e 8b3d a43e
000000d0: 818b af3e 4e45 a23e 0456 b93e a0a9 ba3e
000000e0: 743c ad3e a870 0fbc 449b 8bbc 802c fc39
000000f0: 4d57 2e3d fe45 2dbd afb6 14bd 70ca 9a3e
00000100: ad09 bc3e 29ba a03e a2a5 a3bc d672 333d
00000110: 5fb2 0cbc 74dd 02bd 2a0d 3c3d a10a f2bc
00000120: 95a1 8c3e a429 b93e 7b0e 993e 9ef9 a33e
00000130: 4797 b33e 744a bb3e 2e4f 943e 1ff0 9d3e
00000140: 81ca a03e 5f66 b53e d75b a43e 63f8 ab3e
00000150: 8ebd a53e de0f b63e 0d04 a23e 5917 2bbb
00000160: 5c76 b03c 602f 2f3b bd50 923e e95b be3e
00000170: 21e0 bb3e 7f86 a13e 6b2d b03e 8090 ab3e
00000180: d734 9e3e 083f b03e 03ba aa3e 8072 923e
00000190: b748 af3e c2ba a53e 87bd b43e 44bb af3e
000001a0: b263 9c3e c3ef a13e 5c91 923e aa35 903e
000001b0: 8af3 8d3e 6498 ab3e 5ed6 9b3e c407 c7bc
000001c0: 9bf9 4d3d ee5a b93c 76ab 533d f797 303d
000001d0: 2699 083d 0ec4 a93e 40fa 9f3e ebca 9a3e
000001e0: f49e 9d3e 62fb b53e fee1 b93e a518 9d3e
000001f0: ba7c b13e 662f 963e 1f49 ca3a 17c8 4e3d
00000200: 2b15 b6bc 66f5 923e a949 bd3e 99d6 8e3e
00000210: 72b3 b53e d8f2 b03e f7a3 a83e 95ad a13e
00000220: 71fe 953e 6abd a43e fd22 913e 06d5 9e3e
00000230: 0404 b33e 1c89 923e 3d87 ad3e b82b aa3e
00000240: bfba b53e b43b 9f3e 681b 933e 26f3 b7bc
00000250: 19b8 0cbd 9a82 113d 982b 1e3c 388a 683c
00000260: c0bb 2b3b 6452 0abc 5c6b f93c d8b2 6e3c
00000270: dd9c 943e e385 9c3e b801 923e 6a3a ad3e
00000280: 0753 8c3e e75a b63e 77da b03e 2794 a73e
00000290: 2b26 a33e 6f4c 943e 60cb b43e c86e 953e
000002a0: 30c8 593e 93ee 553e d04d 543e 29ce 8d3e
000002b0: aa4e 9c3e 61fd ae3e 4431 8f3e a993 ad3e
000002c0: 60db bc3e 248b b53e a7aa ab3e ff9e 903e
000002d0: ab73 bd3e 855b b53e 4479 a43e 9d5e a13e
000002e0: 1e98 bb3e 4484 8c3e 6c36 a73e a1b0 b33e
000002f0: 1e73 a63e ace5 b63e 28ee 913e 2a72 9e3e
00000300: 6995 963e 1e55 b63e d43f a63e d81c 8d3e
00000310: 7dad b93e a8d5 b43e 862c 9f3e 8ad2 bb3e
00000320: 973e 953e cc8d b13e 4de4 a33e 2bfe b13e
00000330: 4b61 8b3e cb3e 993e 4aff 943e 9e48 a83e
00000340: 74c2 b23e e430 bb3e ffb5 a33e 0a88 ab3e
00000350: 6800 b43e 088e bc3e 3cf7 9d3e 9510 9e3e
00000360: 25e3 a33e ea40 b43e 4a97 933e 402c 83bc
00000370: a111 d3bc bc35 023c 49eb aa3e 98ec a83e
00000380: 4064 8d3e 62d9 a93e 169d a63e aeb5 ac3e
00000390: 4c01 343d c5c3 fabc 0085 f13a ffc8 0a3d
000003a0: b303 543d d0b1 77bc 3cf3 2dbd f8fd 0c3c
000003b0: d8ef d53c 44e7 bf3e f711 903e 118f 9d3e
000003c0: c648 a33e 0a46 9c3e 57e7 9e3e cc90 aa3e
000003d0: 2b85 a83e 5522 8c3e 00ae b3bc 6084 373d
000003e0: 8898 8b3b d845 b93c a0a7 7abb 4a0f 0e3d
000003f0: 4922 983e d614 ad3e 45e3 aa3e f9b0 ae3e
0.3051762 0.3232846 0.35662976 0.308175 0.37188822 0.35525838 -0.014022518 0.019385902
-0.010275774 0.008189693 0.01627104 -0.00057797506 0.33371693 0.36327508 0.34056306 0.35592613
0.28091937 0.29547948 0.3056299 0.33095664 0.35818315 0.2996264 0.30182055 0.37231755
0.29122064 0.21639402 0.26615342 0.2487722 0.32930487 0.27925867 0.30185202 0.28254288
0.3713633 0.01532963 0.03806781 -0.0051940093 0.010326581 0.010572181 0.048265547 -0.038509917
0.01943643 -0.015316177 0.3719109 0.35621694 0.36609885 0.30783656 0.32412717 0.29630128
0.33172312 0.34341815 0.30873218 0.32078204 0.3428612 0.316935 0.36198437 0.3645754
0.33835185 -0.008754887 -0.01704181 0.0004809834 0.042563725 -0.042303078 -0.036307033 0.30232573
0.36726132 0.3139203 -0.01997644 0.043810688 -0.008587449 -0.031949475 0.04591099 -0.029546084
0.27467027 0.36164582 0.2989386 0.3202638 0.35076353 0.3658024 0.2896666 0.3084726
0.31404498 0.35429665 0.32101318 0.33587942 0.3237118 0.3555898 0.31643716 -0.0026106446
0.021540813 0.0026731119 0.28577223 0.37179497 0.36694434 0.31547925 0.3440965 0.33508682
0.3089969 0.3442309 0.3334504 0.28602982 0.34235165 0.32369047 0.35300848 0.3432256
0.3054481 0.31628236 0.28626525 0.28165942 0.27724868 0.33514702 0.30436987 -0.024295695
0.05028687 0.022626366 0.05167719 0.043113675 0.03334918 0.3315739 0.31245613 0.3023294
0.30785334 0.35543352 0.3630523 0.30682865 0.3466547 0.29333037 0.0015433169 0.05048379
-0.02222689 0.2870285 0.3697026 0.278981 0.35488468 0.34560275 0.32937595 0.31577745
0.29295686 0.3217576 0.28347006 0.310219 0.34964 0.2862023 0.3389224 0.3323648
0.35494038 0.31100237 0.28731847 -0.02245481 -0.034355257 0.035524942 0.009653948 0.01419311
0.0026204437 -0.008442495 0.0304467 0.014569007 0.29025927 0.30570897 0.28516936 0.3383363
0.27407095 0.35616228 0.34541675 0.3273022 0.31865057 0.28964564 0.35311413 0.29186082
0.21267772 0.2089179 0.20732808 0.2769635 0.30528766 0.34177688 0.27967274 0.33901718
0.3688612 0.35457718 0.33528635 0.28246304 0.3700231 0.35421386 0.32123768 0.31517497
0.36639494 0.2744466 0.32658708 0.35095695 0.32509702 0.357221 0.2850201 0.30946475
0.29410866 0.35611814 0.32470572 0.2756107 0.36265174 0.35319257 0.31088656 0.36684066
0.29149315 0.34678495 0.32010117 0.34764227 0.27222666 0.2993072 0.2910102 0.32867903
0.3491398 0.36560738 0.3197479 0.33502227 0.3515656 0.3682711 0.30852687 0.30872026
0.32009235 0.35205775 0.28826362 -0.016012311 -0.025765242 0.007947382 0.33382633 0.32993007
0.27615547 0.33173662 0.32541722 0.3373236 0.04394655 -0.030610928 0.0018426478 0.03388309
0.05176134 -0.015118077 -0.042468295 0.008605473 0.026115343 0.3748113 0.28138706 0.30773214
0.3189146 0.30522186 0.31035873 0.33313596 0.329141 0.27369943 -0.021933556 0.044803977
0.0042601265 0.022616312 -0.0038246885 0.03468255 0.29713657 0.3380496 0.33376518 0.34119394

conv_layers.4.bias f4 [64]
00000000: 5603 8d3e a5ad 92bc 724c 7f3e 99e8 223d
00000010: 43c0 853e 037a 4d3e 7612 643e ed22 463e
00000020: 6ce8 753e 9404 563e 6bca 793e a581 5d3e
00000030: 512d 7d3e aad6 05bd d3bf 5f3e 0573 8a3e
00000040: b066 853e 8cc4 173c 4a3a 6b3e 8d94 4bbd
00000050: c7ee 6abb 2d22 833e bd27 483e 6acd 283c
00000060: 0ad1 8cbc ad42 ea3b 9a20 99bc cae7 363e
00000070: e191 3a3e 35df 41bd 22cb 243d 3ba2 2dbd
00000080: 8ce2 783e 5947 4c3e 242f cd3b 58d4 2c3d
00000090: cab3 bebb 2e89 833c 7fdc 883e dd6c 8d3e
000000a0: 5eac 6a3e b9fb 2e3e 81e7 1e3d e0e4 07bd
000000b0: ac3f 353e 39f9 143d 1460 7a3e 4f8e 833e
000000c0: 9855 493e 3179 2cbd b8b7 823e 525f 6b3e
000000d0: 083b 8b3e e51b 453e 2b00 843e 50da 6c3e
000000e0: a144 df3c 9075 6b3e 9746 ad3c 7f26 3e3d
000000f0: 2adb 8dbc 8f3e 563e d022 5a3e 0260 863e
0.27541608 -0.017905066 0.24931505 0.039772604 0.26123247 0.20066075 0.22272667 0.1934926
0.24014443 0.20900184 0.24393623 0.21631487 0.24724318 -0.032675423 0.21850519 0.27040878
0.26054907 0.009263169 0.22971454 -0.049702216 -0.0035847889 0.25612012 0.19546409 0.010302881
-0.017189521 0.0071490617 -0.018692303 0.17861858 0.18219711 -0.047332007 0.040232785 -0.042391043
0.24305171 0.19949092 0.006261723 0.042194694 -0.0058197724 0.016056623 0.26730725 0.2762212
0.22917315 0.17088212 0.038794998 -0.033177257 0.1770007 0.03637049 0.24450713 0.2569451
0.19661558 -0.042107765 0.2553079 0.2298558 0.27193475 0.19248922 0.25781378 0.23130155
0.027254405 0.22994065 0.021151824 0.04642343 -0.01731642 0.20922302 0.21302342 0.26245123

output_fc.0.weight f4 [32, 64]
00000000: 4b95 553b b07b d7bd c9f9 e1bd 61e9 cc3d
00000010: 7fed 84bd a86c d93c b183 833d 04fc 80bc
00000020: af54 89bd 5431 0d3b a25e ae3c bdc5 32bd
00000030: 2f31 c43d e0aa 54bd 1f6d 4d3c 5d69 43bd
00000040: 9a57 bbbd f54f 1bbd 5bb7 633d 02f2 c5bd
00000050: 6bf3 003d 682d 6c3d bbfc de3c 0c45 e33d
00000060: c523 a1bd 92b2 95bc eef9 97bd c0be 42bd
00000070: aca9 edbd 94dd 513d 79d7 01be b96c d6bd
00000080: 4d19 b93d 3189 23bd e402 5b3d 390f bc3d
00000090: f9cc c6bd 2f6e a43d e5c2 573b d78a 613d
000000a0: c432 c83d 701a 1d3d a809 693b 8aab c13d
000000b0: 5dc9 8cbc 9c4c 27bd b998 2ebd 81ff 993d
000000c0: a85d 07be 21e8 8e3d 492b 05be 768c 903d
000000d0: 1537 ffbd fe5a fbbd 17b9 833d 47c4 913d
000000e0: 8958 b93d 04dc d53d 3c34 d03d f990 c73d
000000f0: 903f 73bc 33d3 563d 7c3e 1c3d 0b30 2bbd
00000100: f1ba 503e 80db 9ebc 196c b93e b69c 8ebc
00000110: b694 933e cc27 b63e 0956 b63e fbbc d73e
00000120: 2d72 673e 74bb c23e 47a3 e33e 28e4 9c3e
00000130: de8f a33e 30b1 833c 3a6e b43e aa91 973e
00000140: 4b60 c93e 9311 8dbd 5463 993e 0f7c 67bd
00000150: b681 fc3d dd4e d73e 7731 c13e 03dc 7ebb
00000160: f0e2 cb3c 1307 0abd 7f6b 57bd 8cac e13e
00000170: 92d3 c43e 0053 e03a fc36 4ebd 8390 9dbd
00000180: da41 863e e701 ab3e 6a6e 863d 11df b4bd
00000190: 69b1 7b3d 6df6 d43c e304 563e ebfc af3e
000001a0: c43e a83e 86d2 6e3e 14f3 b1bd de47 c3bd
000001b0: 293e 7f3e d195 6ebd 27f1 713e e4f5 c13e
000001c0: 8477 df3e 00ea 403d 26db 813e ec07 973e
000001d0: 2c40 ca3e 710e 593e 1e74 c53e 3e07 9e3e
000001e0: 6a84 9c3d ba27 d13e 3912 aebd 89af edbd
000001f0: 408f e53b 49e4 a13e adb7 b83e dda5 8f3e
00000200: a859 8ebc a2d0 9abc f86e 07bd ce77 63bd
00000210: 404c 9ebd e68e 8e3d cd29 d0bd 9ded dcbd
00000220: 1ec1 c13d 8872 f6bd 4aa2 9bbc a5e2 61bb
00000230: a667 883d 3aa0 f33d 26e8 a0bc be1a 583d
00000240: 55ad e23d 08c7 043d 5fe1 853d 8618 9b3d
00000250: 7441 e33d 5e9e 093c 0953 7dbd 9200 c6bd
00000260: e77a 3e3d 8ef5 a9bd 6727 84bd 5be5 0fbd
00000270: 2d2e 02be 6a1d 863d 20f9 df3d 200c 9e3c
00000280: 63dc 7c3d 0252 f8bd 3412 453d ebdb 8fbd
00000290: 4405 02bc 4ba3 f9bc 078e ac3d 73cf 1f3d
000002a0: db0e f0bd 6cfa 12bb 4e8c f2bd 9ca3 6abd
000002b0: 9f83 03be 8e2d c5bd 5cc7 1e3d 5487 033d
000002c0: 0903 b0bd a071 723c b321 f13d b591 923d
000002d0: 2337 5a3d ef08 c93d e632 adbc e802 e1bd
000002e0: ee90 833c df37 de3d 95ae debc a161 e13d
000002f0: 982a d7bc 07c1 b1bd 9105 a93d d853 573d
00000300: 7375 d53e ce21 9dbd cd84 d23e bee8 c1b9
00000310: 2fe6 d73e 1458 d83e f6f0 9f3e 7e48 9d3e
00000320: 7563 913e 98d3 5a3e 7af4 e13e 0e80 bd3e
00000330: 88eb dc3e 449f 523d 83d6 8c3e 718a df3e
00000340: 5592 ce3e c87e e8bd 1308 b73e 3653 933d
00000350: b9a3 e03d 104a 983e f0e5 883e 4d0b d43c
00000360: 8537 e33d 91bf acbc 00f9 8bbc ee90 713e
00000370: 3968 e93e 3cd1 32bd 9b80 3abd e93e f8bd
00000380: 612a 883e e71e d43e aa43 bdbd 9069 a4bd
00000390: b9e1 843c e2af 653d 2635 e33e ad64 b93e
000003a0: 1925 af3e f0da ba3e 4f55 29bd faa0 af3d
000003b0: c549 a03e 939a ce3d ac1b 773e 0c64 ae3e
000003c0: 0b4d ad3e dfb0 ab3d e2c6 783e 3e7c c83e
000003d0: e4df 7d3e 6c70 9d3e 8052 d53e a79c 8c3e
000003e0: e95b 51bd 6251 e83e fda2 b7bd d9d0 203d
000003f0: 5c80 1d3d 9167 913e eb51 9d3e f38b 9c3e
0.0032590206 -0.105216384 -0.11033971 0.10005451 -0.06490611 0.02654107 0.064216025 -0.01574517
-0.06705605 0.0021544294 0.021285359 -0.04364561 0.095796935 -0.05192077 0.0125382235 -0.047707904
-0.09147568 -0.03791805 0.055594783 -0.096653 0.03148214 0.05766049 0.02722012 0.11097154
-0.078681506 -0.018273626 -0.07420717 -0.047545195 -0.11604628 0.051236704 -0.12679853 -0.10469956
0.09038029 -0.039925758 0.053469554 0.09182591 -0.09707064 0.08028828 0.0032922563 0.05506405
0.09775308 0.03835529 0.0035558734 0.094565466 -0.017185861 -0.040844545 -0.042626116 0.07519437
-0.13219321 0.06977869 -0.13004793 0.07058041 -0.12461678 -0.12273215 0.064317875 0.07117515
0.0905009 0.10442355 0.10166213 0.09744448 -0.014846697 0.05244751 0.038145527 -0.041793864
0.20383812 -0.019391775 0.36215284 -0.01740871 0.28824395 0.35577238 0.35612515 0.42136368
0.22602148 0.3803364 0.44460508 0.3064282 0.319457 0.0160757 0.35240346 0.2960332
0.39331278 -0.06888118 0.29958594 -0.056514796 0.12329428 0.42052355 0.3773305 -0.0038888461
0.024888486 -0.033698153 -0.05259275 0.44076955 0.38442665 0.001711458 -0.050345406 -0.07693579
0.26222116 0.3339989 0.065640286 -0.08831609 0.06144849 0.025996411 0.20900302 0.3437265
0.32860386 0.23322496 -0.086889416 -0.09535192 0.24926056 -0.058248345 0.23627149 0.37882912
0.4364587 0.04709816 0.2536251 0.2949823 0.39502084 0.21196915 0.38565153 0.308649
0.076424435 0.4085062 -0.084995694 -0.11605746 0.007005602 0.3161948 0.36077634 0.2805623
-0.017376736 -0.018898312 -0.033064812 -0.055534177 -0.07729387 0.069608495 -0.10164223 -0.10787509
0.09460662 -0.12033564 -0.018998284 -0.0034467366 0.06660394 0.11895795 -0.019641947 0.05275988
0.11068217 0.032416373 0.06537127 0.07573037 0.110964686 0.008399574 -0.061846767 -0.096680775
0.046503928 -0.08298789 -0.06452828 -0.03513084 -0.12712927 0.06548579 0.10936189 0.019292891
0.061733615 -0.12125017 0.048113063 -0.07024368 -0.007935826 -0.030473372 0.08425527 0.0390162
-0.117215835 -0.0022427095 -0.11843167 -0.057284936 -0.12843178 -0.096278295 0.038764343 0.03211148
-0.08594329 0.014797598 0.11774006 0.07156698 0.05327524 0.09816157 -0.021142434 -0.109868824
0.016060319 0.108505 -0.027182857 0.11004949 -0.026265427 -0.08679395 0.08253015 0.052570194
0.4169117 -0.07672463 0.41116944 -0.00036985235 0.42167804 0.42254698 0.31238526 0.3071937
0.28396192 0.21369779 0.44131833 0.3701176 0.43148446 0.05142142 0.2750741 0.4366031
0.40346017 -0.113523066 0.35748348 0.071936056 0.109687276 0.29744005 0.26737928 0.025884295
0.11094574 -0.02108744 -0.017086506 0.23590443 0.45587328 -0.043656573 -0.045532804 -0.12121374
0.26594833 0.41429827 -0.092414215 -0.08027947 0.016220914 0.056075938 0.44376487 0.36209622
0.3420799 0.3649516 -0.041341122 0.08575626 0.31306282 0.100880764 0.2413165 0.34060705
0.33847842 0.08383345 0.24294618 0.3915729 0.24792439 0.30749834 0.41664505 0.27463266
-0.051113043 0.4537459 -0.089666344 0.039261673 0.03845249 0.28399327 0.3072656 0.30575523

output_fc.0.bias f4 [32]
00000000: 663a 55bd 1807 903e cfc9 b9bd e0a1 7f3e
00000010: 7ba8 563e 6e7b d9bd 266b 50bc 8dbb 563e
00000020: 8056 b7ba d280 96bd c5a8 64bd f091 103e
00000030: 8d36 f23d 01c3 b9bc f05b f03c 3e0d 61bd
00000040: 379f 933d 023e debd f4af 1c3e a96b 39bd
00000050: c912 19bb 4013 403d e24e 9c3c 858a 873d
00000060: 0f71 c83d cac8 003e 1eeb 823d d588 cb3d
00000070: 4126 89bd aa8c 9c3d cfea 763e deab f6bd
-0.052057646 0.28130412 -0.09071695 0.24964094 0.20962708 -0.106192455 -0.012720859 0.20969982
-0.0013987571 -0.07348789 -0.055825014 0.1411817 0.11826811 -0.022675993 0.029340714 -0.05494427
0.07208102 -0.10851671 0.15301496 -0.04526869 -0.0023357144 0.04689336 0.019080583 0.066182174
0.09787189 0.12576595 0.06392501 0.09938208 -0.066967495 0.07644017 0.2411301 -0.120445

output_fc.2.weight f4 [1, 32]
00000000: ea73 0f3d d6a3 aabe ecad 333d ec20 c4be
00000010: 44f2 eabe ca01 923b b353 f93d 9226 efbe
00000020: cee1 dcbd b07f 193c 4fe9 273e 2b8b e0be
00000030: f693 03bf 4161 383d f2c1 fe3d 9bb2 303e
00000040: 88bd 2f3e f08e f73c d653 02bf 4219 873c
00000050: c0ef d43d 33bd 013d c960 e43d 1aa0 00bf
00000060: 8fef 0f3d bb1e b3be 80cd c43a 681c e7be
00000070: 1e7d 233e 6f2e d1be c5ab cabe 31a8 0f3e
0.035022654 -0.33328122 0.043867037 -0.38306367 -0.4588796 0.0044557797 0.121741675 -0.46709114
-0.10785256 0.009368822 0.16397594 -0.43856177 -0.51397645 0.045014624 0.12439336 0.17255633
0.17162144 0.030219525 -0.50909173 0.016491536 0.10397291 0.031674575 0.11151273 -0.50244296
0.03514057 -0.34984383 0.0015014857 -0.4513886 0.15965697 -0.4085574 -0.39584175 0.14029004
