duedate_pretrained_critic.pth (torch, 284084 bytes, 9 tensors)

conv_layers.0.weight f4 [64, 96, 3]
0.28721225 0.29010594 0.21363549 0.26383388 0.21237656 0.29836938 0.2862148 0.28043568
0.24076027 0.23289758 0.21496347 0.21184076 0.24051201 0.30252492 0.21946111 -0.054743417
-0.013772052 -0.042754166 0.300948 0.2704021 0.21935718 0.25459743 0.27287656 0.17943715
0.2591795 0.22749038 0.19925666 0.30416292 0.2500652 0.25852653 -0.0085632205 0.027884815
0.022711549 0.21886346 0.2682627 0.19588894 -0.03986461 0.1376466 0.11777041 0.18758607
0.19146204 0.23948485 0.19031703 0.20608929 0.050999165 0.23013718 0.2429907 0.26205775
0.21121566 0.28048965 0.22091398 0.24448174 0.2725456 0.2943696 0.21281587 0.2783194
0.29835007 0.24800956 0.24068846 0.20500728 0.24949464 0.29120803 0.2358792 0.24141128
0.31982243 0.2993904 0.27504802 0.22373357 0.3045414 0.2113935 0.19042838 0.21573785
0.016459297 -0.036509883 0.036955588 -0.04781812 0.037914164 -0.011931227 -0.045468412 0.047541205
0.04285944 -0.025699336 0.055238772 -0.0094226375 0.22090095 0.2920566 0.24707891 0.24839957
0.30107638 0.22252195 -0.05165408 -0.010318984 -0.009550904 0.258099 0.24937797 0.22650701
0.20836757 0.20985125 0.19998991 0.242531 0.2886941 0.23092087 0.27583262 0.24179785
0.21017392 0.21424487 0.2945536 0.29937246 0.18635416 0.18432368 0.18844779 0.20149532
0.28643352 0.21791095 -0.042418666 -0.05345591 -0.047036536 0.27999964 0.3155411 0.3125031
-0.016037788 0.018166905 -0.027243964 0.32177663 0.3193661 0.27120516 0.30225348 0.2869606
0.20713288 0.15079309 0.15114176 0.14730251 0.23111896 0.22215472 0.26486394 -0.033597462
-0.048997752 -0.066149674 0.026762165 0.11567326 0.097886704 0.22473896 0.2495218 0.262485
0.21855763 0.21090935 0.23482867 0.027800117 -0.04094986 -0.019684754 0.23065327 0.27884185
0.22128004 -0.024049547 0.036254365 -0.01066542 0.1881474 0.2789255 0.2607323 0.09922052
0.014821347 0.056379884 0.28161472 0.2981652 0.22748324 0.26714402 0.2932391 0.2899462
0.26331416 0.28046498 0.25850308 0.23486564 0.21436907 0.22240114 0.25668454 0.24753734
0.22062247 0.2729384 0.20483968 0.20794353 0.29031193 0.2082118 0.2574803 0.12030393
0.21771267 0.18185702 0.23721431 0.28323537 0.172107 0.22943409 0.24323566 0.12855268
0.21237604 0.289218 0.19348393 0.057648633 0.007974159 -0.0041972026 0.23708314 0.30151346
0.2821158 0.004424297 0.07396446 0.050407637 0.23359579 0.20703089 0.19993268 0.15905304
0.100734316 0.14277808 0.05069462 0.043313976 -0.057539657 0.22183013 0.28632486 0.31356692
0.03571898 0.04196403 0.010693624 0.05925155 0.016388636 -0.0086104125 0.13628557 0.17467956
0.094565965 0.2774946 0.22528327 0.17701495 0.2765071 0.26225448 0.19698705 0.21374355
0.21293277 0.28762951 0.2755304 0.23425677 0.2329276 0.22661057 0.23781748 0.29816908
0.18580161 0.2218434 0.20248486 0.28857455 0.2145102 0.24617936 0.23427154 0.1637502
0.19634147 -0.048017778 -0.025828172 -0.058641873 -0.033765562 -0.04289316 0.027347732 0.015778873
00000000: 7c0d 933e c488 943e 43c3 5a3e 3c15 873e
00000010: 3e79 593e dfc3 983e bf8a 923e 4495 8f3e
00000020: dc89 763e b47c 6e3e 621f 5c3e c9ec 583e
00000030: c848 763e 8ce4 9a3e 6aba 603e a23a 60bd
00000040: 2ca4 61bc fe1e 2fbd db15 9a3e 2572 8a3e
00000050: 2b9f 603e 985a 823e 7ab6 8b3e 5fbe 373e
00000060: 2db3 843e 3df3 683e f009 4c3e 3ebb 9b3e
00000070: 8c08 803e 975d 843e c04c 0cbc b26e e43c
00000080: 920d ba3c be1d 603e bb59 893e 1c97 483e
00000090: 1349 23bd 3bf3 0c3e 9d31 f13d 9016 403e
000000a0: a00e 443e 843b 753e 78e2 423e 1209 533e
000000b0: 80e4 503d 15a9 6b3e 8ed2 783e 6f2c 863e
000000c0: eb48 583e 579c 8f3e 4637 623e 6c59 7a3e
000000d0: 198b 8b3e 9db7 963e 67ec 593e e17f 8e3e
000000e0: 57c1 983e 38f6 7d3e 0977 763e 6eed 513e
000000f0: 867b 7f3e 3819 953e 518a 713e 8534 773e
00000100: c4bf a33e b349 993e 18d3 8c3e 6a1a 653e
00000110: daec 9b3e 8a77 583e a8ff 423e 62ea 5c3e
00000120: a6d5 863c 638b 15bd be5e 173d efdc 43bd
00000130: e24b 1b3d 317b 43bc 163d 3abd 91ba 423d
00000140: 618d 2f3d 6a87 d2bc 0d42 623d 6861 1abc
00000150: dc33 623e 7188 953e 4102 7d3e 755c 7e3e
00000160: af26 9a3e cbdc 633e 3b93 53bd f510 29bc
00000170: 657b 1cbc 8d25 843e f05c 7f3e 74f1 673e
00000180: 4f5e 553e 3fe3 563e 28ca 4c3e 0c5a 783e
00000190: b7cf 933e 8576 6c3e ef39 8d3e db99 773e
000001a0: d537 573e 0263 5b3e bbcf 963e 5947 993e
000001b0: a0d3 3e3e 59bf 3c3e 75f8 403e ca54 4e3e
000001c0: 6aa7 923e 0c24 5f3e 32bf 2dbd 96f4 5abd
000001d0: 62a9 40bd 1d5c 8f3e 9a8e a13e 6800 a03e
000001e0: ae61 83bc c3d2 943c bc2e dfbc e8bf a43e
000001f0: f483 a33e 67db 8a3e f8c0 9a3e 80ec 923e
00000200: a41a 543e 8169 1a3e e8c4 1a3e 78d6 163e
00000210: 73aa 6c3e 877c 633e 3f9c 873e 7e9d 09bd
00000220: deb1 48bd 7b79 87bd 543c db3c 1ae6 ec3d
00000230: d378 c83d f821 663e a582 7f3e 6f64 863e
00000240: 92cd 5f3e 9ff8 573e ed76 703e 12bd e33c
00000250: 0abb 27bd ec41 a1bc 5f30 6c3e 5cc4 8e3e
00000260: 3c97 623e 8e03 c5bc 757f 143d 04be 2ebc
00000270: b6a9 403e 53cf 8e3e b47e 853e 2134 cb3d
00000280: 3cd5 723c 98ee 663d ce2f 903e 1ca9 983e
00000290: 5ef1 683e 1ac7 883e 6f23 963e d473 943e
000002a0: 1dd1 863e 1b99 8f3e 845a 843e 9e80 703e
000002b0: 9183 5b3e 20bd 633e 286c 833e 6e7a 7d3e
000002c0: dbea 613e 95be 8b3e 7ec1 513e 26ef 543e
000002d0: c4a3 943e 7935 553e 75d4 833e e861 f63d
000002e0: 12f0 5e3e ba38 3a3e 4fe8 723e 3a04 913e
000002f0: d13c 303e c5f0 6a3e c512 793e 50a3 033e
00000300: 1b79 593e 6214 943e a720 463e f920 6c3d
00000310: 0ca6 023c b088 89bb ecc5 723e f95f 9a3e
00000320: 7b71 903e b1f9 903b ae7a 973d 3d78 4e3d
00000330: bc33 6f3e e8ff 533e 27bb 4c3e cdde 223e
00000340: cb4d ce3d 6b34 123e 29a5 4f3d ff69 313d
00000350: b4ae 6bbd 7027 633e 2c99 923e d88b a03e
00000360: 114e 123d 7ae2 2b3d 4f34 2f3c c1b1 723d
00000370: 7641 863c b012 0dbc 728e 0b3e 33df 323e
00000380: cdab c13d c613 8e3e a8b0 663e 6843 353e
00000390: 5792 8d3e 3846 863e f9b6 493e 97df 5a3e
000003a0: 0c0b 5a3e 2d44 933e 5212 8d3e 02e1 6f3e
000003b0: 9384 6e3e 9a0c 683e 6d86 733e 9ea9 983e
000003c0: c742 3e3e eb2a 633e 3158 4f3e 0bc0 933e
000003d0: 90a8 5b3e 7116 7c3e e1e4 6f3e 22ae 273e
000003e0: bd0d 493e 4aae 44bd 9a95 d3bc 7632 70bd
000003f0: c24d 0abd bdb0 2fbd 5a08 e03c b242 813c

conv_layers.0.bias f4 [64]
0.24173407 0.1635945 0.2407547 0.25555858 0.21360295 0.26638973 0.2547645 0.22625461
0.12834558 0.26774484 0.27836666 0.06511888 0.28435597 0.22193596 0.25085208 0.09765416
0.280626 0.19292481 0.23757909 -0.057714686 -0.05866223 0.20718203 0.045826368 -0.056516558
0.23313272 0.26615423 0.23364562 0.28686687 0.16082846 0.18940488 0.16433571 0.28226882
0.12667231 0.02108229 0.20616074 0.16117883 0.09772344 -0.017214462 0.19355413 0.22093788
-0.054012947 0.2871552 0.18689702 0.16596171 0.123663366 0.2577885 0.24644305 0.22311248
0.26808488 0.22302735 -0.011999875 0.25496694 0.18405098 0.13317218 0.260365 0.2741663
0.043506604 0.22647475 0.26988277 0.040625777 0.27076992 0.20079547 -0.0039557293 0.092352755
00000000: 2389 773e 5185 273e 6688 763e 93d8 823e
00000010: bbba 5a3e 3c64 883e 7e70 823e 4aaf 673e
00000020: 066d 033e da15 893e 1386 8e3e 0c5d 853d
00000030: 1b97 913e 2e43 633e af6f 803e e7fe c73d
00000040: 36ae 8f3e 158e 453e ef47 733e 3c66 6cbd
00000050: ce47 70bd 8727 543e 6eb4 3b3d e87d 67bd
00000060: 58ba 6e3e 5e45 883e cc40 6f3e 37e0 923e
00000070: 37b0 243e 5af3 413e 9f47 283e 8a85 903e
00000080: 63b6 013e c4b4 ac3c cd1b 533e 100c 253e
00000090: 3a23 c83d 5805 8dbc 0e33 463e 8a3d 623e
000000a0: ae3c 5dbd 0206 933e ef61 3f3e def1 293e
000000b0: 3843 fd3d dbfc 833e 915b 7c3e 9977 643e
000000c0: 6c42 893e 4861 643e 209b 44bc 078b 823e
000000d0: dc77 3c3e 4a5e 083e 904e 853e 865f 8c3e
000000e0: fb33 323d ffe8 673e 132e 8a3e 3767 263d
000000f0: 5ba2 8a3e 549d 4d3e 109f 81bb 7123 bd3d

conv_layers.2.weight f4 [128, 64, 3]
-0.040624835 -0.04367125 0.059678033 -0.05988328 0.023577996 -0.018253464 -0.05940152 -0.019182127
-0.022069167 -0.05144591 0.06744234 -0.031235814 0.057355285 0.047913842 -0.054467127 -0.007805072
0.06793907 0.032714218 0.05132752 -0.019037154 0.023368597 -0.0056229383 -0.03580232 -0.023836926
0.04307308 0.01652921 -0.024374522 -0.0448182 -0.028486218 0.0003098175 -0.017749138 -0.062187716
-0.0032921284 -0.02986493 0.031972505 0.03154192 -0.07001742 0.0129561275 0.060442924 0.034108616
-0.009605072 -0.05711335 -0.06557964 0.053119525 -0.05086343 0.070282355 0.04920943 0.030700818
0.014694221 0.060001478 0.010947548 0.005961962 -0.06822763 -0.03454511 0.06523664 -0.07208568
0.013524167 -0.012147807 0.036288314 -0.03733256 -0.03745987 -0.06531457 -0.03557711 0.023674421
0.010874689 -0.008466028 -0.03314703 0.0029935539 0.038575083 0.034632355 -0.06616245 0.024629548
-0.042894445 0.037655607 -0.04273618 -0.004658237 0.028410293 -0.050117165 0.0203268 -0.024228137
-0.053770725 0.041563183 -0.062009946 -0.07062061 0.010014854 -0.011998955 0.06177996 0.04787784
-0.00044361502 0.059656188 0.04957211 -0.04283829 0.05604835 0.00996165 -0.07041372 0.052548908
-0.023602575 -0.016767152 0.05848518 -0.03456568 -0.038631856 0.013303265 0.0068513528 0.032478593
-0.06148146 0.047587924 0.011566147 -0.05983468 0.025420867 0.06422581 0.041301742 0.034561522
0.040658765 -0.06590495 0.052202947 0.06426664 0.046677813 -0.038371645 -0.06598303 -0.05666488
0.01870028 0.06504993 -0.0026384369 0.037727438 0.0026909336 -0.058859177 -0.06272921 -0.07074031
0.05256237 0.037020437 -0.022758756 -0.056042716 -0.012043431 -0.007880092 0.06131646 -0.04187894
0.064423785 0.057162926 -0.018660232 -0.015692595 0.041444115 0.01899843 0.014757901 -0.007849932
-0.037123665 -0.06581746 0.0498944 -0.053739205 -0.032862395 -0.0020899326 0.012448929 0.02053526
0.06339222 -0.00033217669 0.024903722 -0.027772851 -0.010580726 -0.056318954 -0.000487715 0.047502518
0.057495415 0.06541875 -0.02226698 -0.06731232 -0.053868808 0.0686519 0.055996135 0.013164297
-0.009877045 0.048027553 -0.016797863 0.007211283 -0.018766627 -0.066980876 0.06281178 -0.04023901
-0.011710748 -0.038182158 0.019720525 0.05952011 0.028376393 0.047590137 0.064109296 0.0057894066
0.001953937 -0.038014628 0.05322461 0.050349236 -0.055249825 -0.051420644 -0.062372863 0.025169596
0.27600023 0.2114402 0.18538454 0.24504597 0.17425245 0.18612349 0.20911588 0.2543075
0.18472429 0.19238573 0.29019982 0.20018108 0.22160612 0.23818861 0.17594574 0.18084222
0.2446693 0.259313 0.2479436 0.285358 0.2113862 0.22215968 0.19714952 0.29316968
0.20636743 0.1110056 0.14430867 0.2321597 0.30268696 0.24324706 0.26511782 0.31218186
0.22423142 0.15513739 0.17054151 0.06559221 0.2546953 0.21591195 0.23414467 0.17918737
0.22736518 0.2764109 0.2510802 0.24703164 0.17835829 0.21377613 0.11337808 0.16926333
0.26616383 0.24251306 0.18097948 0.31663507 0.20150054 0.29344985 0.30942875 0.24261947
0.25252438 0.040132314 -0.011151418 0.0098039135 -0.06662161 -0.011527099 0.060526054 0.24004833
00000000: 3a66 26bd a0e0 32bd f470 743d 2c48 75bd
00000010: a426 c13c 4a88 95bc 024f 73bd d623 9dbc
00000020: 66ca b4bc f2b8 52bd 361f 8a3d 40e2 ffbc
00000030: 60ed 6a3d 4e41 443d ec18 5fbd b0c1 ffbb
00000040: a423 8b3d 58ff 053d ce3c 523d cef3 9bbc
00000050: 806f bf3c a040 b8bb 74a5 12bd a845 c3bc
00000060: 666d 303d 4468 873c 14ad c7bc 4a93 37bd
00000070: ee5b e9bc 006f a239 a466 91bc 8cb8 7ebd
00000080: c0c0 57bb 4ca7 f4bc 9af5 023d 1a32 013d
00000090: 4b65 8fbd f045 543c 0093 773d 7ab5 0b3d
000000a0: 985e 1dbc b0ef 69bd 9e4e 86bd dc93 593d
000000b0: 2c56 50bd 32f0 8f3d d48f 493d 4880 fb3c
000000c0: 08c0 703c 1cc4 753d 585d 333c 905c c33b
000000d0: edba 8bbd 2c7f 0dbd ca9a 853d a8a1 93bd
000000e0: 7894 5d3c 9807 47bc 0ea3 143d 07ea 18bd
000000f0: 856f 19bd a5c3 85bd 4eb9 11bd dcf0 c13c
00000100: c02b 323c 18b5 0abc 2ec5 07bd 802f 443b
00000110: e800 1e3d a8da 0d3d 2e80 87bd e8c3 c93c
00000120: 16b2 2fbd c43c 1a3d 220c 2fbd 20a4 98bb
00000130: b4bc e83c a847 4dbd 6484 a63c 167a c6bc
00000140: b13e 5cbd 283e 2a3d 24fe 7dbd 8aa1 90bd
00000150: 5815 243c 4497 44bc fc0c 7d3d 8e1b 443d
00000160: 0095 e8b9 0c5a 743d 200c 4b3d 3477 2fbd
00000170: f492 653d 3036 233c 1235 90bd 863d 573d
00000180: 305a c1bc 445b 89bc 288e 6f3d be94 0dbd
00000190: 703c 1ebd f0f5 593c 5081 e03b 4608 053d
000001a0: fcd3 7bbd 8eeb 423d f07f 3d3c 3615 75bd
000001b0: 6c3f d03c d288 833d 042c 293d 6290 0d3d
000001c0: ce89 263d 2df9 86bd c2d2 553d 3a9e 833d
000001d0: 3c31 3f3d 962b 1dbd 1c22 87bd 6f19 68bd
000001e0: 5431 993c e638 853d a0e9 2cbb 1688 1a3d
000001f0: 605a 303b 5216 71bd 2c78 80bd 4ce0 90bd
00000200: a44b 573d bea2 173d 9270 babc 0c8d 65bd
00000210: d051 45bc 801b 01bc f826 7b3d 4089 2bbd
00000220: 9ef0 833d ac23 6a3d 58dd 98bc c28d 80bc
00000230: 4ec1 293d 98a2 9b3c 20cb 713c 009d 00bc
00000240: fc0e 18bd 4ecb 86bd 125e 4c3d a41d 5cbd
00000250: b89a 06bd 40f7 08bb 98f6 4b3c 9039 a83c
00000260: c8d3 813d 0028 aeb9 e402 cc3c e483 e3bc
00000270: c85a 2dbc b4ae 66bd 00b4 ffb9 0092 423d
00000280: 5080 6b3d 44fa 853d 3e69 b6bc 0bdb 89bd
00000290: 8aa5 5cbd 5e99 8c3d 345c 653d 10af 573c
000002a0: 54d3 21bc 8ab8 443d ac9b 89bc a04c ec3b
000002b0: 78bc 99bc 452d 89bd 76a3 803d a9d1 24bd
000002c0: 70de 3fbc e564 1cbd f08c a13c 5ccb 733d
000002d0: 9c75 e83c e0ed 423d bc4b 833d 10b5 bd3b
000002e0: a00d 003b 3ab5 1bbd 0c02 5a3d 003b 4e3d
000002f0: a44d 62bd 749e 52bd b07a 7fbd 7830 ce3c
00000300: e74f 8d3e c883 583e 72d5 3d3e 55ed 7a3e
00000310: 3c6f 323e 2897 3e3e 7922 563e 9834 823e
00000320: 5d28 3d3e c400 453e 1295 943e 45fc 4c3e
00000330: b7ec 623e b7e7 733e 1f2b 343e b42e 393e
00000340: 978a 7a3e acc4 843e ede4 7d3e 721a 923e
00000350: a075 583e d47d 633e 90e1 493e 561a 963e
00000360: fc51 533e e756 e33d a7c5 133e 46bb 6d3e
00000370: c9f9 9a3e c215 793e 86bd 873e 4dd6 9f3e
00000380: ec9c 653e 56dc 1e3e 6fa2 2e3e 3555 863d
00000390: 6c67 823e 0618 5d3e 9fc3 6f3e e57c 373e
000003a0: 6bd2 683e bb85 8d3e 958d 803e ddf5 7c3e
000003b0: 8ea3 363e 21e8 5a3e c432 e83d 5e53 2d3e
000003c0: a046 883e 5855 783e af52 393e fe1d a23e
000003d0: 2856 4e3e 0f3f 963e 726d 9e3e 3d71 783e
000003e0: e04a 813e c861 243d 70b4 36bc 98a0 203c
000003f0: e970 88bd 28dc 3cbc 2bea 773d 3bcf 753e

conv_layers.2.bias f4 [128]
-0.05482822 0.18702938 0.23583293 -0.05880843 0.16942312 0.15249088 -0.04163122 0.17491658
0.02824026 0.23609778 -0.0029378256 0.26121035 -0.009856796 0.2283538 0.23815064 0.12016997
0.26731777 -0.038354654 -0.01488703 0.13738479 0.11058356 -0.011876863 0.24300952 0.2326088
-0.011410167 0.201019 0.23809946 -0.029184435 0.17257138 0.19518624 -0.0059240125 0.26618806
0.20842974 -0.03624595 0.12985042 0.13034143 0.11003385 0.20463273 0.13383058 0.17253324
-0.057064015 0.06824801 0.19725356 0.19349822 0.1066411 0.1436757 0.18126425 0.1291782
-0.0018547286 0.19001877 0.11829723 0.2160225 0.19108184 -0.047051795 0.1941589 0.14345399
0.1937375 0.13035785 0.20703185 0.2365103 0.22816315 0.21429327 -0.008168675 0.1917354
0.20512252 0.17910783 0.014096748 0.18117756 0.013681053 0.12279626 0.26132685 0.1316441
0.17749539 0.14591327 0.23346196 0.02453669 0.18411519 0.26576167 0.0492035 -0.062564135
0.12894458 0.13027279 -0.022001015 0.2557137 0.26437718 0.16504611 0.05010742 0.21061704
0.19678532 -0.034690067 0.21105097 0.14008272 0.19818184 -0.0035491884 -0.034433708 0.16845077
0.25259736 -0.055474658 0.15358771 0.18613596 0.1386175 0.19674863 0.19731142 -0.027089756
0.1735528 0.2144231 0.22800402 0.20078854 -0.029622529 0.100380205 0.22542323 0.11212155
0.051275156 0.2407867 0.025879974 0.16818075 0.038664293 -0.005416736 0.17590398 0.20876253
0.11911785 0.14915667 0.2276371 0.23254691 0.04233756 0.24623032 0.26435822 0.06054857
00000000: 8e93 60bd a184 3f3e 307e 713e 1ce1 70bd
00000010: 417d 2d3e 9226 1c3e 8085 2abd 551d 333e
00000020: 1e58 e73c 9ec3 713e 8988 40bb 5dbd 853e
00000030: 667e 21bc 94d5 693e c3dd 733e ac1b f63d
00000040: e0dd 883e c519 1dbd bbe8 73bc 99ae 0c3e
00000050: a279 e23d 2d97 42bc 7dd7 783e 0031 6e3e
00000060: b6f1 3abc edd7 4d3e 58d0 733e 3214 efbc
00000070: 8db6 303e e7de 473e 381e c2bb cd49 883e
00000080: 9b6e 553e a276 14bd 82f7 043e 3978 053e
00000090: 6d59 e13d 3e8b 513e e20a 093e 8eac 303e
000000a0: f5bb 69bd 9dc5 8b3d d6fc 493e 6624 463e
000000b0: a666 da3d b91f 133e 569d 393e 4a47 043e
000000c0: 5d1a f3ba 4894 423e d145 f23d 0135 5d3e
000000d0: f5aa 433e 62b9 40bd 97d1 463e 9ae5 123e
000000e0: 2063 463e 877c 053e 2800 543e c22f 723e
000000f0: 9aa3 693e b26f 5b3e e8d5 05bc 4956 443e
00000100: a30b 523e 0b68 373e 0cf6 663c 9c86 393e
00000110: 7f26 603c 9b7c fb3d a2cc 853e b6cd 063e
00000120: 5ac1 353e 4a6a 153e a710 6f3e 2b01 c93c
00000130: b188 3c3e ea11 883e 9c89 493d a021 80bd
00000140: 0c0a 043e 3b66 053e 793b b4bc e8ec 823e
00000150: 725c 873e d901 293e 703d 4d3d feab 573e
00000160: 1782 493e 2c17 0ebd bf1d 583e d871 0f3e
00000170: 2ef0 4a3e 8099 68bb 5c0a 0dbd 5c7e 2c3e
00000180: 7154 813e 6539 63bd 1946 1d3e 6d9a 3e3e
00000190: bff1 0d3e 7978 493e 010c 4a3e 56eb ddbc
000001a0: d3b7 313e bb91 5b3e e379 693e 839b 4d3e
000001b0: f2aa f2bc 2394 cd3d 59d5 663e fc9f e53d
000001c0: e605 523d ca90 763e 3d02 d43c 9337 2c3e
000001d0: 735e 1e3d e07e b1bb 2c20 343e d8c5 553e
000001e0: 0ff4 f33d 87bc 183e b319 693e c720 6e3e
000001f0: 266a 2d3d cd23 7c3e f659 873e c701 783d

conv_layers.4.weight f4 [64, 128, 3]
-0.030563533 -0.022408448 0.0044700988 -0.0027651326 -0.00061798526 0.03681943 -0.05058793 0.031766437
-0.052050125 0.03725046 -0.024051944 0.044973835 -0.05239818 0.036672387 0.0018947758 -0.049075093
-0.040039107 -0.03056028 -0.010266423 0.020805165 -0.001191739 0.046463072 -0.018488243 0.019515377
-0.014655685 0.04472956 0.044103865 -0.03866617 0.011990285 -0.0016793947 -0.034466907 0.00030953926
0.028779706 -0.047938075 0.043611445 0.008301135 0.028993288 0.023759017 -0.001125324 0.01616845
0.025342677 0.04029574 -0.024336718 0.027553063 -0.019314094 0.006673342 0.025277724 0.02264652
-0.051837433 0.019164963 0.012634203 -0.0010947473 0.039451905 -0.00052892044 -0.008803718 -0.036629964
-0.049270052 -0.021995774 -0.035415247 0.033124983 0.018061236 -0.043664876 -0.012256075 0.026269393
-0.046656344 -0.016702076 -0.024417704 0.002947994 0.023229549 0.048391014 0.012413666 -0.02131925
0.008364573 0.045144055 0.015069888 -0.036906507 0.042346742 -0.009518324 0.04277483 -0.004496271
0.046340436 0.02429089 -0.005249113 -0.01326276 0.036855154 -0.033107653 -0.007953971 -0.048045464
-0.019503396 0.044366907 0.014599498 -0.04002838 0.04394307 0.042179774 0.00017440008 -0.0076675983
0.02458635 -0.05321836 0.024632743 -0.049150497 -0.00295135 0.030558646 0.033820283 -0.03400064
-0.036884196 0.04151544 0.020046858 -0.044019446 -0.024519835 0.034317862 0.02620874 -0.043436315
0.02150395 -0.024073068 -0.04784081 0.038839635 0.0015839675 0.019520689 0.030427333 0.014159022
-0.035407335 -0.03693667 -0.050254893 -0.008344583 -0.021567853 -0.0116712935 -0.020825833 -0.0056406087
-0.04633972 -0.009544932 0.03888818 0.031993125 -0.025928307 -0.044384442 0.014482334 0.0064459755
-0.03439154 -0.008631511 0.006295329 -0.018936858 -0.049125012 0.045112863 0.039306983 -0.036806576
-0.035813726 0.0269202 -0.038946606 0.037057355 0.003194066 0.023207048 0.0066287257 0.036385015
0.036303595 0.044747323 0.004410339 -0.026969094 0.016394481 0.027301941 0.031010939 0.031383693
-0.042930156 -0.014507054 -0.040376127 -0.045484614 -0.041890502 -0.041783247 -0.0012532028 0.0285343
0.023151161 0.026421886 0.025007635 -0.0082278475 0.00124304 -0.011093009 -0.012662894 -0.050996542
-0.042183165 -0.045173798 -0.018132102 -0.03019645 0.030216286 -0.051727552 0.042044453 -0.01213861
-0.019499835 -0.01141492 -0.040759463 0.01753804 -0.012555793 -0.0054725856 -0.041383747 -0.039365813
-0.03344677 -0.04505184 0.032553013 0.0009875095 -0.019353202 -0.0121162785 0.032608792 0.00481318
-0.032218646 0.04177677 0.037920583 -0.043218564 -0.048760865 -0.008367926 -0.001411548 -0.050467152
-0.0274531 -0.029854098 0.004927333 -0.012542519 0.045097418 0.047062397 0.019574739 -0.0063391067
0.0415006 0.034023996 -0.027111955 -0.0034961328 0.023494558 0.027199129 -0.03236651 -0.017160155
0.03505036 0.042067274 0.009477572 0.013965124 0.03491273 -0.014376945 -0.011630242 -0.04946416
-0.0147945685 -0.025318585 -0.021308316 0.009895192 0.019298945 0.008220829 -0.011247415 -0.023559295
-0.03414487 0.010099679 0.040092874 0.030070886 -0.04784445 0.01307857 -0.048503876 0.03784574
-0.016923696 -0.007859567 0.030614708 0.0017581959 0.0063671228 -0.015512245 0.009227875 -0.009030733
00000000: 6060 fabc ec91 b7bc e879 923b 3a37 35bb
00000010: 4a00 22ba f8cf 163d 4a35 4fbd 861d 023d
00000020: 8332 55bd f093 183d 9508 c5bc 7c36 383d
00000030: 799f 56bd c935 163d 205a f83a f702 49bd
00000040: 0c00 24bd 8d59 fabc 8034 28bc 986f aa3c
00000050: 2034 9cba 1050 3e3d a874 97bc b6de 9f3c
00000060: 661e 70bc 5836 373d 41a6 343d 6b60 1ebd
00000070: e672 443c 231f dcba 2c2d 0dbd a849 a239
00000080: 6bc3 eb3c b75a 44bd eaa1 323d 7c01 083c
00000090: 5583 ed3c 45a2 c23c 9c7f 93ba b273 843c
000000a0: 729b cf3c 250d 253d cc5d c7bc f6b6 e13c
000000b0: 9738 9ebc 0dac da3b 3b13 cf3c 3285 b93c
000000c0: 7d53 54bd d7ff 9c3c b0ff 4e3c a07d 8fba
000000d0: 5298 213d 40a7 0aba 783d 10bc 4d09 16bd
000000e0: 65cf 49bd 7b30 b4bc 940f 11bd 10ae 073d
000000f0: 28f5 933c f1d9 32bd b4cd 48bc e932 d73c
00000100: b91a 3fbd cbd2 88bc a307 c8bc 2233 413b
00000110: e54b be3c a835 463d b062 4b3c b5a5 aebc
00000120: 900b 093c f9e8 383d b1e7 763c 472b 17bd
00000130: c773 2d3d bff2 1bbc a934 2f3d 7455 93bb
00000140: 78cf 3d3d b0fd c63c c000 acbb 0c4c 59bc
00000150: 6ef5 163d e49b 07bd 5f51 02bc 52cb 44bd
00000160: 96c5 9fbc 13ba 353d bc32 6f3c ccf4 23bd
00000170: a6fd 333d b3c4 2c3d 2adf 3639 7a40 fbbb
00000180: 5069 c93c 7ffb 59bd 9bca c93c 0852 49bd
00000190: 706b 41bb 2056 fa3c 2387 0a3d 4144 0bbd
000001a0: e213 17bd 180c 2a3d 4f39 a43c bc4d 34bd
000001b0: d2dd c8bc e390 0c3d b6b3 d63c 47ea 31bd
000001c0: 0d29 b03c e234 c5bc baf4 43bd 4f16 1f3d
000001d0: 219d cf3a dae9 9f3c be42 f93c 3efb 673c
000001e0: 4807 11bd e84a 17bd 13d8 4dbd b8b7 08bc
000001f0: 11af b0bc f438 3fbc f09a aabc dbd4 b8bb
00000200: b8ce 3dbd 5962 1cbc 3649 1f3d 390b 033d
00000210: 9a67 d4bc 76cc 35bd 5047 6d3c c338 d33b
00000220: 25de 0cbd 2e6b 0dbc 0c49 ce3b 7821 9bbc
00000230: 4f37 49bd 44c8 383d 5c00 213d 7ec2 16bd
00000240: 6ab1 12bd c087 dc3c 7a86 1fbd 74c9 173d
00000250: 8953 513b b51c be3c c835 d93b 7408 153d
00000260: 14b3 143d f848 373d 9b84 903b 4aee dcbc
00000270: b84d 863c 52a8 df3c a70a fe3c 308c 003d
00000280: 88d7 2fbd ffae 6dbc 7061 25bd 134e 3abd
00000290: 6095 2bbd e924 2bbd 8242 a4ba c4c0 e93c
000002a0: 81a7 bd3c b672 d83c d0dc cc3c 18ce 06bc
000002b0: 80ed a23a 74bf 35bc 0778 4fbc c0e1 50bd
000002c0: 41c8 2cbd 2908 39bd c689 94bc 8c5e f7bc
000002d0: 2588 f73c 45e0 53bd ce36 2c3d 05e1 46bc
000002e0: 1ebe 9fbc a505 3bbc 65f3 26bd f0ab 8f3c
000002f0: d0b6 4dbc 6053 b3bb 0182 29bd 0c3e 21bd
00000300: 7bff 08bd 4788 38bd 4f56 053d 526f 813a
00000310: 9b8a 9ebc 5b83 46bc cc90 053d e1b7 9d3b
00000320: b3f7 03bd 1e1e 2b3d 9d52 1b3d f305 31bd
00000330: 79b9 47bd a019 09bc b103 b9ba a5b6 4ebd
00000340: 53e5 e0bc 9590 f4bc 7775 a13b 237f 4dbc
00000350: 12b8 383d 80c4 403d 345b a03c 48b8 cfbb
00000360: 88fc 293d bf5c 0b3d e419 debc 601f 65bb
00000370: a977 c03c b5d0 de3c bf92 04bd 7493 8cbc
00000380: f790 0f3d bc4e 2c3d d147 1b3c facd 643c
00000390: a700 0f3d 478d 6bbc c58c 3ebc ee9a 4abd
000003a0: eb64 72bc ec68 cfbc c78e aebc 721f 223c
000003b0: d218 9e3c a8b0 063c 1447 38bc 6cff c0bc
000003c0: 7edb 0bbd 2079 253c 6d38 243d 3857 f63c
000003d0: 8bf8 43bd 8047 563c 00ac 46bd 2204 1b3d
000003e0: 90a3 8abc 6ac5 00bc b2cb fa3c 4473 e63a
000003f0: 4ca3 d03b 1227 7ebc 8330 173c a4f5 13bc

conv_layers.4.bias f4 [64]
0.04146266 -0.016766716 0.008500718 0.039085835 0.0037511454 -0.040773973 -0.008171115 0.14166893
0.13720565 -0.023814345 0.085323885 0.18767658 0.11108341 0.04168453 0.03575459 0.13707578
0.13598326 -0.029545711 0.15073095 0.13889366 0.16082741 -0.009683441 0.13342567 0.0066920607
-0.02669941 -0.037888017 0.16585076 -0.044671316 0.18123639 0.11905292 -0.039477773 0.109092064
0.0013956041 0.19857012 0.17608754 0.16177164 -0.01785984 0.16664127 0.028894156 -0.027992614
0.17261119 0.011984711 0.16452467 0.1254712 0.0327054 0.19123822 0.12097808 -0.033000883
0.016320724 0.1380671 -0.0040696627 0.12342703 -0.001088397 0.015544121 0.030857293 0.10808972
0.15533657 -0.0075562187 0.1359467 0.035793383 -0.0062859594 0.14240868 -0.038941536 0.0038374788
00000000: c0d4 293d 5a5a 89bc 9846 0b3c 7818 203d
00000010: c7d5 753b 9c02 27bd 24e0 05bc a911 113e
00000020: a37f 0c3e 4d16 c3bc 4abe ae3d 4a2e 403e
00000030: b37f e33d 66bd 2a3d 6873 123d 985d 0c3e
00000040: 323f 0b3e d909 f2bc 3759 1a3e 243a 0e3e
00000050: f1af 243e 4ca7 1ebc bda0 083e 1349 db3b
00000060: b9b8 dabc 7730 1bbd c8d4 293e 45f9 36bd
00000070: 0896 393e 04d2 f33d 72b3 21bd a96b df3d
00000080: b4ec b63a f755 4b3e 4b50 343e 77a7 253e
00000090: cd4e 92bc 02a4 2a3e 70b3 ec3c c450 e5bc
000000a0: fdc0 303e 855b 443c 2879 283e 867b 003e
000000b0: 19f6 053d f4d3 433e 5bc3 f73d ef2b 07bd
000000c0: 0ab3 853c 7661 0d3e ce5a 85bb 50c7 fc3d
000000d0: 8ba8 8eba c5ac 7e3c 6fc8 fc3c 255e dd3d
000000e0: 8d10 1f3e 289a f7bb 9d35 0b3e 159c 123d
000000f0: 73fa cdbb 95d3 113e 2981 1fbd 367e 7b3b

output_fc.0.weight f4 [32, 64]
-0.043857917 -0.053708017 -0.0860022 -0.042142615 0.038316227 0.11006737 0.09355059 -0.028255006
-0.09755564 0.04755567 -0.1089901 -0.04475334 0.059286263 0.08270929 0.07889542 -0.056650616
0.0455224 0.072423324 -0.043409258 -0.038617797 0.016382638 -0.10426374 0.096538305 -0.09102999
0.058554932 -0.01480253 0.017195353 0.07377154 0.03023324 0.00522187 -0.08135258 0.09599015
0.001292552 -0.061488293 -0.12774724 -0.04823073 0.07059519 0.098164774 -0.030032137 -0.054511353
0.0034330254 0.025502287 0.086298466 0.053068854 0.059868217 -0.10059786 0.08027099 0.061040614
0.10985688 0.048981156 -0.107294664 -0.06426455 -0.018556412 -0.09315337 0.030228104 -0.040083814
0.08868434 0.040746406 -0.08391905 -0.047390345 0.032541618 -0.05269038 -0.04081957 0.11360315
-0.026297703 0.09556335 0.11542308 0.02407141 0.059016764 -0.073510915 0.11139031 0.049653724
-0.007444471 0.052369416 -0.0866389 -0.10096887 -0.031294227 -0.081536025 0.014374703 0.0038680881
-0.06640424 -0.0348316 -0.10116178 0.021304876 -0.1068992 -0.0067816973 -0.030043378 -0.039180875
0.09906854 -0.117650345 -0.09243031 0.12342258 -0.06467958 -0.0054674894 -0.07206257 -0.092479214
-0.10301189 0.034052625 -0.09181258 0.04030581 0.03883785 -0.08019711 0.118119046 -0.04129748
-0.045496657 0.04243797 -0.091209054 0.09927201 -0.119158134 -0.001618743 -0.07511291 -0.07376997
-0.08358377 -0.06390767 -0.09129672 0.056087583 -0.11488029 0.05454193 0.056744903 0.055370405
-0.038204476 0.06800228 -0.11247328 0.031343013 0.08318341 0.11861758 0.102188244 -0.06801754
-0.08453679 0.033725917 0.00017473102 -0.017003164 -0.05864303 -0.10602671 0.08348258 -0.08918668
-0.073753655 0.12298398 0.006507233 -0.10502982 -0.06835601 -0.0814867 0.0060908794 0.08478068
-0.033535883 -0.027176827 -0.018790841 0.08672455 -0.084864974 -0.0014115274 -0.0011450648 0.11191331
0.11872457 0.024242759 0.10133825 -0.0075148344 -0.12448102 0.035835788 0.03736882 -0.12225331
-0.119994745 0.014038786 -0.11462179 0.0030762553 0.014942884 0.07242417 -0.093177736 0.05999911
0.0030130744 0.114659995 -0.022221461 -0.02414751 -0.040026486 0.08027825 0.1011609 0.100771874
-0.020421907 -0.07740368 -0.10939667 -0.1211665 0.11607538 0.028587908 0.10999173 0.08270645
-0.10058503 -0.023495927 -0.079263136 -0.056054518 0.11822364 0.044571847 -0.0010356158 0.034522533
-0.0846668 0.033997446 -0.030488815 -0.040629677 -0.032620147 -0.0059915334 0.07062544 0.055354036
-0.044824973 0.008400551 0.049403228 -0.105447955 -0.07603116 0.025604103 -0.088050134 0.035096172
0.026746314 0.10927621 -0.023458673 -0.09280784 0.0020329831 0.008266836 -0.07507326 0.07724457
-0.031404898 0.02092192 -0.07313018 0.03112045 0.019779315 0.08961746 -0.025196299 -0.10072796
0.110493936 -0.0051608835 -0.028784288 0.016564846 0.03959834 -0.058927618 -0.09192938 0.10379186
0.10803491 0.07869478 -0.017007189 -0.078116566 -0.053812858 0.05316694 -0.12150907 0.030942293
-0.012253709 0.086709164 -0.08848015 -0.067214206 0.08316448 -0.1284779 0.08428685 0.07340979
0.039066643 -0.088257566 -0.06832183 0.09635248 -0.03896326 0.0070575234 -0.10527392 -0.10753244
00000000: 5ca4 33bd f0fc 5bbd ec21 b0bd bc9d 2cbd
00000010: 7af1 1c3d 006b e13d 7497 bf3d 0b77 e7bc
00000020: 40cb c7bd bcc9 423d 3436 dfbd 474f 37bd
00000030: 27d6 723d 7d63 a93d ec93 a13d 7a0a 68bd
00000040: b275 3a3d ae52 943d e8cd 31bd b22d 1ebd
00000050: e234 863c 3a88 d5bd e0b5 c53d ee6d babd
00000060: 4cd7 6f3d 5086 72bc 45dd 8c3c 8815 973d
00000070: b3ab f73c 381c ab3b 2e9c a6bd 7c96 c43d
00000080: d96a a93a 26db 7bbd 2cd0 02be 968d 45bd
00000090: 3694 903d 9d0a c93d f505 f6bc 4c47 5fbd
000000a0: 9cfc 603b 2cea d03c 40bd b03d ba5e 593d
000000b0: 6038 753d 4006 cebd 1e65 a43d b905 7a3d
000000c0: a5fc e03d 77a0 483d 4ebd dbbd 229d 83bd
000000d0: 9e03 98bc 32c7 bebd eea0 f73c ed2e 24bd
000000e0: 23a0 b53d b4e5 263d c0dd abbd 611c 42bd
000000f0: 5c4a 053d ded1 57bd 6c32 27bd c5a8 e83d
00000100: 486e d7bc b8b6 c33d f062 ec3d 6831 c53c
00000110: 90bb 713d e48c 96bd 9a20 e43d b461 4b3d
00000120: c0f0 f3bb 5081 563d bc6f b1bd c4c8 cebd
00000130: 602e 00bd 5cfc a6bd e083 6b3c c07f 7d3b
00000140: f2fe 87bd 94ab 0ebd e82d cfbd 9087 ae3c
00000150: f8ed dabd 0039 debb 881d f6bc 207c 20bd
00000160: 72e4 ca3d aaf2 f0bd 1a4c bdbd fac4 fc3d
00000170: ba76 84bd a028 b3bb 8a95 93bd be65 bdbd
00000180: e6f7 d2bd c47a 0b3d 3c08 bcbd b417 253d
00000190: 7014 1f3d 623e a4bd 66e8 f13d 8c27 29bd
000001a0: b45a 3abd 70d3 2d3d d0cb babd 204f cb3d
000001b0: 2e09 f4bd 002c d4ba ccd4 99bd b614 97bd
000001c0: f82d abbd 06e2 82bd c6f9 babd 18bc 653d
000001d0: 5c46 ebbd 5c67 5f3d 586d 683d 14cc 623d
000001e0: 4c7c 1cbd c844 8b3d 6458 e6bd 8861 003d
000001f0: 105c aa3d c6ed f23d 1248 d13d c84c 8bbd
00000200: a021 adbd 3024 0a3d 0038 3739 384a 8bbc
00000210: ac33 70bd 8824 d9bd eaf8 aa3d 82a7 b6bd
00000220: 280c 97bd 06df fb3d a03a d53b e019 d7bd
00000230: 3cfe 8bbd 80e2 a6bd 0096 c73b 7ea1 ad3d
00000240: ec5c 09bd f0a1 debc 40ef 99bc a49c b13d
00000250: b0cd adbd 0003 b9ba 0016 96ba ce32 e53d
00000260: de25 f33d c098 c63c 6e8a cf3d 003f f6bb
00000270: e8ef febd 8cc8 123d 0c10 193d f25f fabd
00000280: cebf f5bd f002 663c d4be eabd 009b 493b
00000290: 00d3 743c 2053 943d f8d3 bebd a0c1 753d
000002a0: 0077 453b dcd2 ea3d c809 b6bc 00d1 c5bc
000002b0: d0f2 23bd ec68 a43d 722d cf3d 7c61 ce3d
000002c0: d84b a7bc d285 9ebd 5c0b e0bd 2426 f8bd
000002d0: eeb8 ed3d 3031 ea3c 5843 e13d 0062 a93d
000002e0: 86ff cdbd 887a c0bc b654 a2bd 6c99 65bd
000002f0: 3c1f f23d f890 363d 80bd 87ba 8067 0d3d
00000300: ca65 adbd e840 0b3d aec3 f9bc 4e6b 26bd
00000310: b49c 05bd a054 c4bb 12a4 903d eaba 623d
00000320: 649a 37bd 77a2 093c 0a5b 4a3d 19f5 d7bd
00000330: 3ab6 9bbd b2bf d13c a153 b4bd 01c1 0f3d
00000340: 161b db3c 35cc df3d 672c c0bc 0912 bebd
00000350: cc3b 053b a071 073c 02c0 99bd 6732 9e3d
00000360: 6ca2 00bd 7264 ab3c 47c5 95bd 50f0 fe3c
00000370: 3b08 a23c 5c89 b73d 7868 cebc 764a cebd
00000380: a54a e23d a11c a9bb 07cd ebbc 00b3 873c
00000390: de31 223d 165e 71bd 7945 bcbd d490 d43d
000003a0: 6841 dd3d bb2a a13d a952 8bbc 94fb 9fbd
000003b0: df6a 5cbd 94c5 593d bfd9 f8bd b17a fd3c
000003c0: c8c3 48bc 9394 b13d 1535 b5bd 9aa7 89bd
000003d0: 2452 aa3d b68f 03be 969e ac3d df57 963d
000003e0: 5804 203d 62c0 b4bd 51ec 8bbd 7354 c53d
000003f0: f097 1fbd cc42 e73b da99 d7bd f839 dcbd

output_fc.0.bias f4 [32]
-0.017030088 -0.012606397 -0.04682617 0.1077252 -0.105486676 -0.09213252 -0.06074795 0.017977448
0.035513163 0.085301645 0.13071023 0.029804531 0.048404887 0.02694326 -0.038204074 0.10318199
0.008179501 0.0656898 -0.05783261 -0.10952516 0.12387008 0.0030116588 0.15411757 0.2098062
0.00022597273 0.19911861 0.036903195 0.002136094 0.13969402 0.065803245 -0.0659785 0.014674708
00000000: af82 8bbc 108b 4ebc cccc 3fbd 089f dc3d
00000010: 6609 d8bd faaf bcbd d8d2 78bd 7145 933c
00000020: 4076 113d a1b2 ae3d e7d8 053e a228 f43c
00000030: 3444 463d 1db8 dc3c e07b 1cbd 1451 d33d
00000040: 5003 063c 6088 863d e3e1 6cbd ba4e e0bd
00000050: 99af fd3d 405f 453b ffd0 1d3e 70d7 563e
00000060: 18f3 6c39 c0e5 4b3e ce27 173d b6fd 0b3b
00000070: f30b 0f3e dac3 863d bc1f 87bd 306e 703c

output_fc.2.weight f4 [1, 32]
0.10509564 0.044106275 -0.018791273 0.0061794166 0.06784147 -0.0357316 0.03757368 0.00959475
0.01591267 0.0702624 -0.31111473 -0.3878573 -0.15664302 -0.3836092 0.009136409 -0.055709705
-0.06582744 0.1456045 0.03179016 0.057969473 -0.26791793 -0.13601759 -0.3197479 -0.30949855
0.16945978 -0.27781308 -0.25190392 0.09541184 -0.28839168 -0.07018963 0.16003977 0.0070715076
00000000: 623c d73d c8a8 343d 28f0 99bc b47c ca3b
00000010: 78f0 8a3d 4c5b 12bd dce6 193d 4c33 1d3c
00000020: 4a5b 823c bce5 8f3d 6e4a 9fbe 3b95 c6be
00000030: 0767 20be 6d68 c4be e0b0 153c dc2f 64bd
00000040: 89d0 86bd 5919 153e 6636 023d 6671 6d3d
00000050: 8a2c 89be 3248 0bbe ffb5 a3be 9876 9ebe
00000060: dd86 2d3e 843d 8ebe 8df9 80be 4867 c33d
00000070: 13a8 93be 95bf 8fbd 77e1 233e 1bb8 e73b
