duedate_pretrained_actor copy.pth (torch, 389522 bytes, 36 tensors)

encoder.part1_encoder.embedding.weight f4 [32, 2]
0	0xbe1d8336	-0.15382084
1	0xbf16df78	-0.58934736
2	0x3e6985e9	0.22804989
3	0xbe0a7112	-0.13519695
4	0xbe8f581d	-0.27996913
5	0xbec23928	-0.37934232
6	0x3dfa3f39	0.1221909
7	0xbf26ad0b	-0.6510779
8	0xbf267393	-0.650201
9	0xbf05608f	-0.5210046
10	0x3e939f82	0.28832632
11	0x3dbaef27	0.09127646
12	0xbec237fb	-0.37933335
13	0x3f194fa7	0.59887165
14	0xbe5371a9	-0.20648827
15	0x3e8507c7	0.25982496
16	0xbf1a0f02	-0.6017915
17	0x3eb54746	0.3540594
18	0xbd8e6d1f	-0.06954407
19	0x3e10ba17	0.14133488
20	0x3ef18138	0.471689
21	0xbf18b4da	-0.5965096
22	0xbe216351	-0.15760542
23	0xbd3f9fc3	-0.04678322
24	0xbe68d124	-0.22736031
25	0xbeedaa4f	-0.46418998
26	0xbeca4b01	-0.39510348
27	0xbec9b032	-0.3939224
28	0x3e8ad624	0.271165
29	0xbdcf9a4a	-0.1013685
30	0x3e64437b	0.22291367
31	0x3f077112	0.52906907
32	0x3e5a1f85	0.21301086
33	0x3cccf65b	0.025019815
34	0xbf1ac337	-0.60454124
35	0x3ee82ef3	0.4534832
36	0x3eeb07ca	0.4590438
37	0x3c687e33	0.0141902445
38	0xbbe28122	-0.0069123665
39	0xbe051203	-0.12995152
40	0x3f1b57ad	0.6068066
41	0x3d84e03e	0.06488083
42	0x3e434788	0.19070256
43	0x3edb66a4	0.42851746
44	0x3ee3a8e1	0.44464782
45	0xbe9f6a7a	-0.31135923
46	0xbf178be6	-0.59197843
47	0x3ea1d0b1	0.3160453
48	0xbedf4d39	-0.43613604
49	0x3dcc3da9	0.09972698
50	0xbe9da949	-0.30793217
51	0xbf1978d7	-0.5995001
52	0xbeccfeed	-0.40038243
53	0xbe31b778	-0.17355144
54	0xbe5b6539	-0.21425332
55	0xbbc6e3f9	-0.006069657
56	0x3e21899f	0.15775155
57	0x3f335066	0.70044553
58	0xbeb1912a	-0.34681064
59	0x3e57966f	0.2105348
60	0x3e3ff547	0.1874591
61	0x3ee45567	0.44596407
62	0xbebe7d6e	-0.3720507
63	0xbf174349	-0.59087044

encoder.part1_encoder.embedding.bias f4 [32]
0	0xbd9d2f57	-0.07675045
1	0x3d1bfd44	0.03808333
2	0x3eeb07c0	0.4590435
3	0x3e46216a	0.19348684
4	0x3ed1ffea	0.4101556
5	0xbf12fb9f	-0.57415193
6	0xbf1090e8	-0.5647111
7	0xbf2870d5	-0.6579717
8	0xbf15da33	-0.5853607
9	0x3eb860b6	0.36011285
10	0xbf344db1	-0.7043105
11	0xbdf22c85	-0.11824898
12	0xbf1c5e43	-0.6108133
13	0xbf04a8df	-0.51820177
14	0xbec737ef	-0.3890986
15	0xbe2542ca	-0.1613876
16	0x3db568b2	0.0885786
17	0x3d9bed8f	0.0761367
18	0x3ecd9e29	0.4015973
19	0xbe049fec	-0.1295163
20	0x3ebe00dd	0.37110034
21	0xbee0e979	-0.43928126
22	0x3cedf521	0.02904755
23	0xbecfa30b	-0.4055408
24	0xbf31d2ab	-0.6946208
25	0xbf200463	-0.62506694
26	0xbebc47c5	-0.36773506
27	0x3f190d77	0.5978617
28	0xbd99eff0	-0.075164676
29	0x3e8e23aa	0.27761585
30	0x3e5efbd3	0.21775751
31	0x3f2aabd8	0.6666846

encoder.part1_encoder.rnn.weight_ih_l0 f4 [64, 32]
0	0xbdce6b30	-0.10079038
1	0xbc193af6	-0.009352436
2	0xbd4f29e1	-0.05057705
3	0x3d2b3b0b	0.041804355
4	0x3c2f26f9	0.010690444
5	0xbded9712	-0.1160108
6	0xbd1cb046	-0.038254045
7	0xbcd1965d	-0.025584394
8	0x3d80506c	0.06265339
9	0xbc9f20a3	-0.019424742
10	0xbd56ebee	-0.052471094
11	0x3dabc293	0.083867215
12	0x3da9cfbc	0.08291575
13	0xbe017835	-0.12643512
14	0x3de4782e	0.11155735
15	0x3d86c7fb	0.06581112
16	0xbd6e961e	-0.05824863
17	0xbced425d	-0.028962309
18	0x3bb9935a	0.0056633176
19	0x3db30858	0.08741826
20	0x3bb9df8d	0.0056724013
21	0xbd8e92c2	-0.069615856
22	0xbdbd0d66	-0.09231071
23	0xbde75833	-0.112961195
24	0x3d44ce5b	0.04804836
25	0x3cc8ddfc	0.024519913
26	0x3cdc04d9	0.02685778
27	0xbd399604	-0.04530908
28	0x3df12161	0.11773945
29	0x3d0c3c6d	0.034237314
30	0xbcf34e48	-0.029700413
31	0x3cc9da96	0.024640363
32	0x3d9acec7	0.07558971
33	0x3d5e3022	0.05424512
34	0xbdc19249	-0.0945173
35	0xbd9b747b	-0.07590576
36	0x3dc9de10	0.09856808
37	0x3a67a8a7	0.0008837082
38	0x3d5ba2f4	0.0536222
39	0x3dd3e7c3	0.103469394
40	0xbd9b439b	-0.07581254
41	0xbd4ea088	-0.050446063
42	0x3bae39da	0.005316955
43	0xbcc3a49e	-0.023882207
44	0xbc414dac	-0.011798304
45	0xbc78d15e	-0.015186636
46	0xbcbff308	-0.023431316
47	0xbdaf6aa2	-0.085652605
48	0xbde940a8	-0.11389285
49	0x3dfe7df0	0.124263644
50	0x3d24eb42	0.04026342
51	0x3dad998f	0.084765546
52	0x3c555a93	0.013022083
53	0xbe095045	-0.13409527
54	0x3d8098c3	0.06279137
55	0xbc1a841a	-0.0094309095
56	0xbd92b433	-0.071632765
57	0x3ceb075e	0.028690036
58	0x3c7e2393	0.015511411
59	0x3de5559c	0.11197969
60	0x3d0054f7	0.03133103
61	0x3d753b1b	0.05987082
62	0x3b55c6fe	0.003261983
63	0xbdc3fec2	-0.095700756
64	0xbe02cdae	-0.12773773
65	0x3b6dbf79	0.0036277457
66	0x3d4dcb21	0.050242547
67	0xbde31207	-0.11087423
68	0xbdbf3c1e	-0.09337638
69	0x3d61086c	0.054939672
70	0x3dadf2f5	0.08493606
71	0x3dd29c48	0.102837145
72	0x3d72c224	0.05926718
73	0xbdbb0bd8	-0.091331184
74	0x3d388a7c	0.045053944
75	0xbd85fe3f	-0.06542634
76	0xbda7539f	-0.08170246
77	0xbe0a137d	-0.13483997
78	0xbd294f45	-0.041335363
79	0x3d159499	0.036518667
80	0x3d3ffcc3	0.04687191
81	0x3da84e57	0.08218067
82	0x3df525e0	0.11970115
83	0x3db42a85	0.087971725
84	0x3d4dd8e0	0.050255656
85	0xbd5a7424	-0.053333417
86	0xbd76f722	-0.060294278
87	0x3d652a19	0.05594835
88	0xbcbd80f3	-0.023132777
89	0x3db9a450	0.09064543
90	0x3c5be1e3	0.013420555
91	0x3de1b186	0.11020188
92	0x3e016092	0.12634495
93	0x3c54584d	0.012960506
94	0x3dfb135d	0.12259553
95	0x3ca23a16	0.019803088
96	0xbd6147cd	-0.055000115
97	0xbcc3c478	-0.023897395
98	0xbd7993f0	-0.0609321
99	0x3dc7991c	0.09746
100	0xbd3bc37a	-0.045840718
101	0x3dac5da9	0.08416302
102	0x3d8adef0	0.06780803
103	0x3dee0239	0.11621518
104	0xbd489c70	-0.048977315
105	0x3b9d6f4a	0.0048045265
106	0x3dd1bd4a	0.10241182
107	0x3dc54ba5	0.09633569
108	0xbda2a1bc	-0.07941005
109	0x39c5b7e0	0.00037711766
110	0xbd3421d6	-0.04397758
111	0x3d48b8da	0.049004413
112	0xbc893a3b	-0.0167514
113	0xbcd5b9e3	-0.026089614
114	0xbd855511	-0.06510366
115	0xbdeabfe5	-0.11462382
116	0x3d80a699	0.06281776
117	0x3dc403d9	0.095710464
118	0xbcaccb2f	-0.02109298
119	0xbc991583	-0.018687015
120	0xbbc1a482	-0.0059095034
121	0xbc49ad21	-0.012309344
122	0x3d98a85d	0.07453988
123	0xbdb2ae11	-0.08724607
124	0xbd5713a8	-0.05250898
125	0x3d04e745	0.03244712
126	0xbd0d9797	-0.034568395
127	0x3cb54184	0.022125967
128	0x3ca3799e	0.019955453
129	0x3d14e220	0.036348462
130	0xbd916cfa	-0.07100864
131	0xbd85592f	-0.06511151
132	0xbcb5d7c6	-0.022197615
133	0x3dcdd010	0.100494504
134	0x3d262ec6	0.04057195
135	0xbd386929	-0.045022164
136	0xbccf0f31	-0.025275799
137	0x3d9b5dcc	0.0758625
138	0x3c4a70ac	0.012355965
139	0xbdf96fc2	-0.12179519
140	0x3da3a939	0.07991261
141	0x3d8f2716	0.06989877
142	0x3dc6e61e	0.0971186
143	0x3dbe4540	0.09290552
144	0x3b0aac07	0.0021159665
145	0xbdc2dce0	-0.09514785
146	0xbd01926a	-0.031633772
147	0xbccb3409	-0.024805086
148	0xbd21dce7	-0.03951731
149	0x3dfd7d96	0.12377469
150	0x3d62545d	0.055256236
151	0x3d799b4e	0.060939126
152	0xbded2868	-0.115799725
153	0x3d6350a4	0.055496827
154	0x3c6d66f2	0.014489876
155	0x3dd3298a	0.10310657
156	0x3dec173d	0.1152787
157	0x3de329dd	0.11091969
158	0x3de07ae2	0.10960938
159	0xbdcf4005	-0.10119633
160	0xbd99e1e6	-0.0751379
161	0xbc768494	-0.0150462575
162	0x3c8dcbed	0.017309153
163	0xbdbf8d7d	-0.093531586
164	0xbc9c5e61	-0.019087972
165	0xbd8c5ca6	-0.06853609
166	0x3d41f607	0.04735377
167	0xbdd35504	-0.1031895
168	0x3b0e3c69	0.0021703488
169	0xbad03e61	-0.0015887731
170	0x3d8c578d	0.068526365
171	0x3dd0322b	0.10165819
172	0xbd12fd20	-0.03588593
173	0xbd28bd93	-0.041196417
174	0xbd35b9b0	-0.04436654
175	0xbb5a251b	-0.0033286277
176	0xbd72e03f	-0.05929589
177	0xbd52b60c	-0.051443145
178	0xbdada39f	-0.08478474
179	0x3db82b91	0.08992685
180	0xbcd2e83a	-0.0257455
181	0xbdf1a05f	-0.117981665
182	0x3de09763	0.10966375
183	0xbdb446a4	-0.08802536
184	0xbdb1e6cf	-0.08686601
185	0x3d8af863	0.06785657
186	0xbc42a2cc	-0.011879634
187	0xbdc755b1	-0.09733141
188	0xbd9f8518	-0.077890575
189	0x3d5062c9	0.05087546
190	0xbc221078	-0.009891622
191	0xbdc7525b	-0.09732505
192	0xbd846dd5	-0.06466261
193	0xbd31896e	-0.043343954
194	0x3dda57d1	0.10661281
195	0x3d5d9c64	0.054104224
196	0x3de8a237	0.11359065
197	0xbda3f1d4	-0.080051094
198	0xbdcca63e	-0.09992646
199	0xbc379898	-0.011205815
200	0xbd48b30b	-0.048998874
201	0x3d4c002b	0.049804848
202	0xbdbbe510	-0.091745496
203	0xbdd5ba8c	-0.104359716
204	0xbc6d1963	-0.014471385
205	0xbd74ef8b	-0.05979876
206	0x3dcb414f	0.09924566
207	0x3d69786b	0.056999605
208	0xbd1d426c	-0.038393423
209	0x3de3f997	0.1113159
210	0x3de80fe7	0.11331158
211	0xbb98c000	-0.00466156
212	0xbcb9614e	-0.022629406
213	0x3d884fb3	0.066558264
214	0xbcf26846	-0.029590737
215	0xbd6f6c7d	-0.05845307
216	0x3d9662f8	0.073430955
217	0xbd3fceea	-0.046828188
218	0x3dde7a6b	0.10863193
219	0x3dd28c27	0.10280638
220	0xbdf1c8f2	-0.118059054
221	0x3d742226	0.05960288
222	0xbd4b2e0c	-0.04960446
223	0xbba0c5fc	-0.004906414
224	0x3db0eebd	0.08639286
225	0xbbc68c41	-0.0060592
226	0xbdad1435	-0.0845112
227	0xbd93f806	-0.07225041
228	0xbd12f048	-0.03587368
229	0x3d7ce4da	0.061741687
230	0x3c994958	0.01871173
231	0xbbd7b513	-0.006582865
232	0x3c361fe4	0.011116002
233	0x3c937994	0.018002309
234	0x3dadab64	0.08479956
235	0x3dd2e73d	0.102980115
236	0x3c81d8bf	0.015850423
237	0xbd8b3bfa	-0.06798549
238	0x3e0d4b56	0.1379827
239	0x3d2b4373	0.04181237
240	0xbd5053dd	-0.05086123
241	0xbe0dc0d6	-0.13843092
242	0x3d0cbb30	0.034358203
243	0x3d320d02	0.043469436
244	0xbd987af9	-0.0744533
245	0x3d45b58d	0.048268843
246	0xbd1d6a26	-0.03843131
247	0xbd160ccc	-0.036633298
248	0x3bcf7cb8	0.0063320063
249	0xbddce988	-0.1078673
250	0xbd962d55	-0.07332865
251	0xbe1288c2	-0.14309981
252	0x3c8716a0	0.01649028
253	0x3d991a4f	0.07475721
254	0xbde3f51a	-0.11130734
255	0xbd882fe3	-0.06649759

encoder.part1_encoder.rnn.weight_hh_l0 f4 [64, 64]
0	0x3b7a37f3	0.003818032
1	0x3d1c1ff3	0.038116407
2	0xbdcf68ac	-0.101273865
3	0x3d822ab4	0.06355801
4	0xbdc29456	-0.09500949
5	0xbd6b43d3	-0.05743773
6	0x3d1b719f	0.037950154
7	0xbde14091	-0.10998643
8	0x3d22995d	0.03969704
9	0xbda753cd	-0.081702806
10	0xbdc502ca	-0.096196726
11	0xbd7c19bd	-0.061547983
12	0x3c19508c	0.009357583
13	0xbdcc4aa5	-0.09975175
14	0x3bfac90b	0.0076533607
15	0xbd8e8ddf	-0.069606535
16	0x3cb372a8	0.021905258
17	0x3ca69ceb	0.020338496
18	0xbd16df1b	-0.036833864
19	0x3d28c15b	0.041200023
20	0xbe0d7bb1	-0.13816716
21	0xbdb5020c	-0.08838281
22	0x3dccdc4c	0.10002956
23	0xbd4b119c	-0.04957734
24	0xbd58c63d	-0.05292343
25	0xbdbae46d	-0.091256
26	0x3dae5b7f	0.08513545
27	0x3bb44dc5	0.005502435
28	0xbcc09b53	-0.023511564
29	0x3df42b26	0.119222924
30	0xbdc84b0a	-0.097799376
31	0xbe07937c	-0.13239855
32	0x3d5b9cc8	0.053616315
33	0xbd2a5de3	-0.041593444
34	0xbd8d3eaa	-0.06896718
35	0x3d22cd9a	0.03974686
36	0xbcc176fc	-0.023616306
37	0xbdc73c39	-0.097282834
38	0xbbae5a96	-0.0053208573
39	0xbd526f3f	-0.051375624
40	0x3d94b873	0.072617434
41	0x3c85f281	0.016350986
42	0xbda4ad80	-0.08040905
43	0xbb209b85	-0.002450676
44	0x3d8a3a9d	0.06749461
45	0x3dc98534	0.098398596
46	0xbdb67907	-0.08909803
47	0xbc5b9f59	-0.013404691
48	0xbd5c3a3f	-0.053766485
49	0xbd19a110	-0.037507117
50	0x3c77bde5	0.015120958
51	0x3a8bdb1d	0.0010670159
52	0x3cd38739	0.025821315
53	0x3dfd438b	0.123663984
54	0xbd96ed40	-0.073694706
55	0x3d960fa2	0.073272005
56	0xbc6aafdc	-0.014324155
57	0xbdd4dc82	-0.10393621
58	0xbc4052df	-0.011738508
59	0x3deb20ce	0.114808664
60	0xbde8745a	-0.11350317
61	0xbd836567	-0.06415825
62	0x3d8cf156	0.06881969
63	0xbccda342	-0.025102261
64	0xbd144dbf	-0.036206957
65	0x3d538f8c	0.05165057
66	0xbdf2a9f3	-0.118488215
67	0x3dbbe028	0.09173614
68	0xbde4b202	-0.11166765
69	0xbd610ea0	-0.054945588
70	0x3d9d656b	0.076853596
71	0xbd7d7f69	-0.061889086
72	0xbd96011d	-0.07324431
73	0xbda3d07e	-0.07998751
74	0xbbf39bd7	-0.007434349
75	0xbb5ac57a	-0.0033381865
76	0x3d5f362e	0.05449503
77	0xbdc1d7a7	-0.094649605
78	0x3db64cde	0.0890138
79	0xbddfc2bb	-0.10925814
80	0xbdba3d29	-0.090936966
81	0xbdb98168	-0.090578854
82	0xbdfba985	-0.12288193
83	0x3c9c8995	0.019108573
84	0xbd5eae6e	-0.054365568
85	0xbab909b9	-0.0014117277
86	0x3d26889e	0.040657632
87	0xbde6b5da	-0.11265154
88	0xbca3535c	-0.01993721
89	0xbb4ca829	-0.003122816
90	0xbd263de2	-0.04058636
91	0x3cf404a0	0.029787362
92	0x3c12e390	0.008965388
93	0xbd518633	-0.051153373
94	0xbc50a66a	-0.012734989
95	0xbd7c411b	-0.061585527
96	0xbe06debe	-0.13170907
97	0xbd99699e	-0.07490848
98	0x3cd2ae79	0.02571796
99	0xbd8ea6bf	-0.06965398
100	0xbd5389f6	-0.05164524
101	0xbd8f5b9c	-0.06999895
102	0xbdeab339	-0.11459965
103	0x3d918ade	0.07106565
104	0x3dc14b16	0.0943815
105	0x3de00edb	0.109403335
106	0x3d1c9175	0.038224656
107	0xbc855772	-0.016277049
108	0x3d16b1aa	0.036790527
109	0xbca614b6	-0.020273548
110	0xbdafce5a	-0.0858428
111	0x3d219bf0	0.039455354
112	0xbd87fef3	-0.066404246
113	0x3dc1a110	0.09454548
114	0xbd3bc5be	-0.04584288
115	0x3cbc57e3	0.022991126
116	0x3da87dd9	0.082271285
117	0x3ddf5aa3	0.109059595
118	0x3bc3a1b1	0.005970203
119	0x3dc604db	0.09668895
120	0xbd822373	-0.06354418
121	0xbdcd9ce9	-0.10039694
122	0xbd961a19	-0.073291965
123	0x3afd2ff8	0.0019316664
124	0xbd95e1d1	-0.07318462
125	0xbdf62a31	-0.12019766
126	0x3d8cc488	0.06873423
127	0xbdbaa3a1	-0.09113241
128	0x3d42736e	0.047473364
129	0xbddf914e	-0.109163865
130	0x3d17fefb	0.037108403
131	0xbd0fb129	-0.035081062
132	0xbd89734f	-0.067114465
133	0x3e0ec551	0.13942458
134	0xbc59a6ed	-0.013284427
135	0xbc35d938	-0.011099152
136	0xbdad13b5	-0.084510244
137	0x3c38dc7b	0.011283035
138	0xbca2834d	-0.019838
139	0x3cf8b936	0.030361753
140	0xbded2f90	-0.115813375
141	0xbd940a08	-0.07228476
142	0xbda30970	-0.079607844
143	0x3daf373c	0.08555457
144	0xbccecb48	-0.025243416
145	0x3de71e39	0.112850614
146	0xbd5a6299	-0.053316686
147	0x3d3cd520	0.04610169
148	0x3dc6e696	0.097119495
149	0x3db5563a	0.08854337
150	0x3dcc5480	0.099770546
151	0xbd8864ca	-0.06659849
152	0xbcee071a	-0.02905612
153	0x3d995aa5	0.07487992
154	0x3d2f363e	0.04277634
155	0xbd979fb9	-0.074035116
156	0xbdb1933e	-0.08670662
157	0x3da2e95c	0.07954666
158	0xbdd02e84	-0.10165122
159	0x3dc0c1f3	0.09411993
160	0xbd85827e	-0.0651903
161	0x3d975256	0.07388751
162	0xbd873573	-0.066019915
163	0xbd36bf49	-0.044616017
164	0xbdbcd57f	-0.09220409
165	0xbd86048c	-0.06543836
166	0x3d42771a	0.047476865
167	0x3da5523d	0.08072326
168	0xbd4d4b5f	-0.050120708
169	0x3ceb30a5	0.028709719
170	0x3dedcc4d	0.11611233
171	0xbdf1cfad	-0.11807189
172	0x3d946f73	0.0724782
173	0x3d5c4d96	0.05378493
174	0x3dbb9970	0.09160125
175	0x3c48df17	0.01226022
176	0x3d4cec8c	0.050030276
177	0xbc4a439d	-0.012345222
178	0x3dfdf8c5	0.12400965
179	0x3b9c2dee	0.0047662174
180	0x3ce27e91	0.027648242
181	0xbdb22f68	-0.08700448
182	0xbdb5e447	-0.08881431
183	0xbcab66b2	-0.020922992
184	0x3d4ea0a9	0.050446186
185	0xbd9012a1	-0.07034803
186	0xbc132cc3	-0.00898284
187	0xbcaa5721	-0.0207935
188	0x3dc8ba76	0.098011896
189	0x3d9b66d0	0.07587969
190	0x3da87dce	0.0822712
191	0xbda28e1a	-0.0793726
192	0x3db0f545	0.086405315
193	0xbd5f8cb4	-0.054577544
194	0x3d32236f	0.043490823
195	0x3d8eabb5	0.06966344
196	0x3ceb61d4	0.028733172
197	0x3d522c0c	0.051311538
198	0xbdd7d749	-0.10539109
199	0x3daa2e7a	0.08309646
200	0x3e015a4a	0.12632099
201	0x3d0f7faa	0.03503386
202	0xbb52acc5	-0.0032146436
203	0xbdeebf2e	-0.116575584
204	0x3dada827	0.08479338
205	0xbb6f0c9d	-0.0036476024
206	0x3dbf62af	0.09344994
207	0x3b9f013b	0.0048524416
208	0x3db797d5	0.089645065
209	0x3bc5fac4	0.0060418565
210	0x3dbe51f7	0.09292977
211	0xbd8b9f8a	-0.06817539
212	0x3ca82d35	0.020529369
213	0xbd516588	-0.05112222
214	0x3e007458	0.12544382
215	0xbd1c6b17	-0.038188066
216	0xbda67693	-0.08128085
217	0x3e069e9c	0.13146442
218	0x3cac187f	0.021007774
219	0x3e0b7199	0.13617553
220	0x3cbb9bb5	0.022901395
221	0xbdf22d6c	-0.1182507
222	0xbacbe4a5	-0.0015555812
223	0xbbe920ea	-0.0071145194
224	0xbda039a8	-0.07823497
225	0x3db3a51c	0.087717265
226	0xbdd193b1	-0.10233248
227	0xb99cbb15	-0.00029894026
228	0xbdb11d1a	-0.08648129
229	0x3d222709	0.039588008
230	0xbc4d17b4	-0.012517858
231	0xbd4a9996	-0.049462877
232	0x3a93f3eb	0.0011287903
233	0x3d328c5c	0.04359089
234	0x3db434c5	0.087991275
235	0x3d3dc812	0.04633338
236	0xbd2b218a	-0.041780032
237	0x3db500a6	0.08838014
238	0x3c6ff943	0.014646831
239	0xbdd3923a	-0.10330625
240	0xbe01c719	-0.12673606
241	0xbde60ffb	-0.11233517
242	0xbd2e24b9	-0.04251549
243	0xbd0d3705	-0.0344763
244	0x3d8c9f56	0.068663284
245	0xbdc910a2	-0.098176256
246	0x3c9b6462	0.018968765
247	0x3d498485	0.049198646
248	0x3cbaf5bd	0.022822255
249	0x3d0a6e2d	0.033796478
250	0xbd09912c	-0.033585712
251	0x3d913011	0.07089246
252	0xbdba2bd6	-0.09090392
253	0xbe097647	-0.13424025
254	0x3d1d398f	0.03838497
255	0xbdb960a5	-0.090516366

encoder.part1_encoder.rnn.bias_ih_l0 f4 [64]
0	0x3dc003f9	0.09375758
1	0xbddc64c1	-0.10761405
2	0xbd070d1b	-0.032971483
3	0xbcd8ba80	-0.026456118
4	0xbdd41a59	-0.10356588
5	0x3dbbc161	0.091677435
6	0x3d0db94a	0.034600534
7	0xbd8eada1	-0.06966711
8	0xbd961c1a	-0.07329579
9	0xbe05f341	-0.13081075
10	0x3dc549a8	0.096331894
11	0x3d45271a	0.048132993
12	0x3dd2b586	0.10288529
13	0xbd79f0eb	-0.061020773
14	0x3dca26e9	0.09870703
15	0x3c82ac4e	0.015951302
16	0xbd97ab41	-0.07405711
17	0x3e00a2df	0.1256213
18	0xbd554d29	-0.05207554
19	0x3de09b16	0.1096708
20	0x3dd1ed0b	0.102502905
21	0xbcd897e9	-0.026439624
22	0x3d013a19	0.031549547
23	0x3d52cd69	0.051465426
24	0x3d3c2a9d	0.045939077
25	0x3dcbafe3	0.09945657
26	0xbb8494d8	-0.004046064
27	0xbc8fe109	-0.01756336
28	0x3d3f505f	0.046707507
29	0xbcb1073c	-0.021609895
30	0x3e008988	0.12552464
31	0xbdbf3c4e	-0.09337674
32	0xbddc7a32	-0.107654944
33	0x3d5b2176	0.053498708
34	0x3da1f3a2	0.079077974
35	0xbcb56fd5	-0.022148052
36	0xbdaade2e	-0.08343159
37	0x3d6e0ea6	0.05811944
38	0xbc3c4f66	-0.011493539
39	0xbd2d6dc1	-0.042340998
40	0x3cefcb67	0.029271794
41	0x3df57b25	0.119863786
42	0xbc4840b0	-0.012222454
43	0x3e0a9ecd	0.1353714
44	0xbdf1325f	-0.11777186
45	0x3d16d5d4	0.036825016
46	0xbcd8e834	-0.02647791
47	0xbd340886	-0.04395344
48	0x3c9ad452	0.01890007
49	0xbdce3cc1	-0.10070182
50	0x3df155cb	0.11783942
51	0x3d8166cb	0.06318434
52	0x3dfaa8ad	0.122392036
53	0x3dc3ac60	0.09554362
54	0xbd8ac652	-0.06776108
55	0xbd697c0b	-0.057003062
56	0xbdd33211	-0.10312284
57	0x3c2553d3	0.010090786
58	0xbc21bbc7	-0.00987143
59	0x3db33fbd	0.087523915
60	0xbd83cd17	-0.06435602
61	0xbdea1734	-0.11430207
62	0xbbcfaa0e	-0.006337411
63	0x3d58a04a	0.05288724

encoder.part1_encoder.rnn.bias_hh_l0 f4 [64]
0	0xbd032870	-0.032020986
1	0xbdc52d78	-0.09627813
2	0x3ddbff06	0.10742001
3	0x3b5dae65	0.003382587
4	0x3d4bf539	0.04979441
5	0x3c27035f	0.010193675
6	0x3ce4d7a6	0.02793486
7	0xbdeea5ff	-0.11652755
8	0x3db94765	0.090468206
9	0x3d22b5c0	0.03972411
10	0x3db7464a	0.089489534
11	0x3d5ce008	0.05392459
12	0xbd6408de	-0.05567252
13	0xbe01f60e	-0.12691519
14	0x3d84a7e0	0.06477332
15	0xbd4a7bda	-0.04943452
16	0xbd33305d	-0.043747295
17	0xbd0b2730	-0.03397292
18	0xbda25846	-0.07926993
19	0x3d9a7f60	0.07543826
20	0xbdfdfb42	-0.12401439
21	0x3dc7c731	0.097547896
22	0xbc94035d	-0.01806801
23	0xbd09c141	-0.033631567
24	0x3d6bd1fc	0.057573304
25	0xbdd441df	-0.103641264
26	0x3d894365	0.067023076
27	0x3df6b23b	0.120457135
28	0xbd813c19	-0.06310291
29	0x3d014d92	0.031568117
30	0x3dfa37e4	0.122176915
31	0xbc6bfc36	-0.0144033935
32	0xbdf8b054	-0.12143007
33	0x3da1b181	0.07895184
34	0x39fd48cc	0.00048310158
35	0xbd831b16	-0.064016506
36	0x3d95d9e7	0.07316952
37	0xbd2878da	-0.041130878
38	0x3d51bfe1	0.05120838
39	0xbd3c0df5	-0.045911748
40	0xbd7c093a	-0.061532237
41	0xbdac5dd9	-0.084163375
42	0x3d7be383	0.06149627
43	0xbcc2790d	-0.023739362
44	0xbdb95d99	-0.090510555
45	0x3dd5dc41	0.10442401
46	0x3dd5db99	0.104422756
47	0xbd81379b	-0.06309434
48	0xbd2e9453	-0.04262192
49	0xbd4a18b5	-0.04933997
50	0xbc377c74	-0.0111991055
51	0xbe0b6836	-0.13613972
52	0xbd9048d9	-0.070451446
53	0x3db88524	0.090097696
54	0xbcce37d6	-0.025173109
55	0xbcf9c0ca	-0.030487437
56	0x3d04fddd	0.032468665
57	0xbdf1e24f	-0.11810743
58	0xbc8ec39a	-0.017427254
59	0x3d1dd9ba	0.03853772
60	0x3bb55a30	0.005534433
61	0x3d0cd24a	0.034380235
62	0x3dc23f44	0.09484723
63	0xbca24aad	-0.019810999

encoder.part2_integrator.machine_embedding.weight f4 [16, 1]
0	0xbf32e2ea	-0.69877493
1	0x3f4e60fd	0.8061674
2	0xbf527c6f	-0.8222112
3	0xbef1e3c4	-0.47244084
4	0x3ec26b28	0.3797238
5	0xbf26be1f	-0.6513385
6	0xbf496b40	-0.78679276
7	0x3f71d520	0.9446583
8	0xbec6a281	-0.38795856
9	0x3f645aff	0.8920135
10	0xbebba702	-0.36650854
11	0x3f44b2ce	0.76835334
12	0xbf73bc0a	-0.952088
13	0x3e093d6c	0.13402337
14	0x3edc1629	0.42985657
15	0xbf5b140b	-0.8557746

encoder.part2_integrator.machine_embedding.bias f4 [16]
0	0xbe831ce0	-0.25607967
1	0x3f2cf6d7	0.6756415
2	0x3f3ebc2b	0.7450587
3	0xbf812f22	-1.0092509
4	0xbf452d1e	-0.7702197
5	0xbe7334f1	-0.23750664
6	0x3f1f492a	0.62221014
7	0x3e85411c	0.26026237
8	0xbf5375e7	-0.8260178
9	0xbf5604f7	-0.83601326
10	0x3d83e220	0.06439614
11	0xbf574876	-0.8409494
12	0xbecdb599	-0.4017761
13	0x3f635e8e	0.88816154
14	0xbe88ab2b	-0.2669309
15	0x3ee83401	0.45352176

encoder.part2_integrator.fc_layer.weight f4 [48, 80]
0	0xbcba71e5	-0.022759387
1	0xbd96a6b3	-0.07356014
2	0x3ce0e222	0.027451579
3	0xbcbde0d7	-0.023178501
4	0x3d4f3163	0.05058421
5	0xbdc7aef4	-0.097501665
6	0x3d8c34d9	0.068460174
7	0xbd0280ba	-0.031861044
8	0xbd37de25	-0.044889588
9	0x3d2c3d14	0.042050436
10	0xbd478d6b	-0.04871885
11	0xbdb7b3aa	-0.08969815
12	0x3dd77c09	0.10521705
13	0x3c58fda5	0.013244067
14	0xbc592206	-0.013252741
15	0x3c606b6b	0.013697485
16	0x3d2ac070	0.04168743
17	0xbdadf4ca	-0.084939554
18	0x3d9c3628	0.07627517
19	0x3d2aabfe	0.04166793
20	0x3d6ec718	0.05829534
21	0x3cf0e982	0.02940822
22	0x3c2ec4ee	0.010667069
23	0x3d1b1b3e	0.037867777
24	0x3cb6127d	0.022225613
25	0xbcc94319	-0.024568127
26	0x3d1c68e6	0.038185976
27	0xbd6475f7	-0.055776563
28	0x3d6e09d8	0.058114856
29	0xbb4bcc96	-0.0031097285
30	0xbcc1f9f2	-0.023678754
31	0x3ddecda2	0.10879065
32	0xbcbed560	-0.023295105
33	0x3d39f810	0.045402586
34	0x3dc5ab70	0.0965184
35	0x3cbce8e5	0.023060272
36	0xbdd583a5	-0.104255
37	0xbc018ee7	-0.007907606
38	0xbd9c08d5	-0.07618872
39	0xbd91bdd9	-0.07116289
40	0x3dc96172	0.09833039
41	0x3da1b43a	0.078957036
42	0x3d31bb46	0.04339149
43	0xbd927149	-0.07150514
44	0xbd0ec9c7	-0.0348604
45	0xbd2a1308	-0.041522056
46	0x3d81558c	0.06315145
47	0xbdbf809e	-0.09350704
48	0x3c291e7a	0.010322208
49	0xbd90ed7c	-0.070765465
50	0xbccc7c01	-0.024961473
51	0x3dcc51ad	0.09976516
52	0x3cd23910	0.025661975
53	0x3d27beea	0.040953554
54	0xbd8c0f77	-0.06838887
55	0xbc13f818	-0.009031318
56	0x3ba78fb7	0.0051135677
57	0xbdf77c28	-0.12084228
58	0xbdb10061	-0.086426504
59	0xbd159ee6	-0.03652849
60	0x3c9aa3f5	0.018877009
61	0x3d8e1d80	0.069392204
62	0xbc9b043c	-0.018922918
63	0x3dd4191f	0.10356354
64	0x3d91ba59	0.07115621
65	0xbd8006fa	-0.06251331
66	0xbdbb6e04	-0.09151843
67	0x3d2d73d0	0.042346776
68	0xbdb06d00	-0.0861454
69	0x3c9d69ac	0.019215427
70	0xbdb25529	-0.08707649
71	0x3b32a5b6	0.0027259416
72	0xbcf88190	-0.030335218
73	0x3e0c38b1	0.13693501
74	0x3d0a1d1d	0.03371917
75	0x3dbbf7ca	0.091781214
76	0xbc90b1dd	-0.017662937
77	0xbbfe2391	-0.0077557047
78	0xbd960e8f	-0.073269956
79	0xbca2a110	-0.019852191
80	0xbce17298	-0.027520463
81	0x3ce26160	0.027634323
82	0x3dc44328	0.095831215
83	0xbd13607e	-0.035980694
84	0xbdd9c056	-0.10632388
85	0x3d789f6c	0.06069891
86	0xbdb7a5c3	-0.089671634
87	0x3cb1b7c0	0.021694064
88	0x3da18f08	0.07888609
89	0x3b7a6ba0	0.0038211122
90	0x3d822bf6	0.06356041
91	0x3daba44e	0.08380948
92	0x3ddb60b6	0.107118055
93	0xbcf9a9ac	-0.030476414
94	0xbdc378c1	-0.09544516
95	0x3da49c9a	0.08037682
96	0xbda7fa6e	-0.082020625
97	0x3d1e4f74	0.03864999
98	0x3d41db38	0.047328204
99	0xbd884332	-0.066534415
100	0xbcd77c78	-0.026304469
101	0xbdb3c8c2	-0.08778526
102	0x3d0f8aa0	0.035044312
103	0x3dde399a	0.108508304
104	0x3dda18e6	0.1064928
105	0x3d08dbf0	0.033412874
106	0xbdb52014	-0.08844009
107	0xbc2f6af0	-0.010706648
108	0x3dd361c4	0.10321382
109	0x3dcd0d54	0.10012308
110	0xbdb34a56	-0.08754413
111	0xbd83dd1e	-0.06438659
112	0xbc58d518	-0.013234399
113	0xbc985a80	-0.018597841
114	0x3db92ec4	0.09042123
115	0xbd45ec20	-0.04832089
116	0xbd0ccab4	-0.034373
117	0x3d9ac298	0.07556647
118	0x3dcabd60	0.09899402
119	0x3dc5d0b2	0.09658946
120	0x3dbf53ea	0.09342177
121	0x3adba2c0	0.0016756877
122	0x39a48c00	0.00031384826
123	0xbcd4cd3c	-0.02597677
124	0x3d32a98c	0.043618724
125	0xbd110c62	-0.0354122
126	0x3c8561a8	0.016281918
127	0xbd6c6848	-0.057716638
128	0xbd1addb2	-0.03780908
129	0xbd5e6857	-0.054298725
130	0xbdc4656c	-0.09589657
131	0xbd78345f	-0.06059682
132	0x3dc3bdea	0.095577076
133	0xbdc445d3	-0.095836304
134	0x3d989690	0.074505925
135	0xbb142dc0	-0.0022610277
136	0xbc26dec0	-0.010184944
137	0xbdd836d6	-0.10557334
138	0xbd45e930	-0.048318088
139	0x3dcc0eaa	0.099637344
140	0xbd785c66	-0.060634993
141	0xbda6a073	-0.08136072
142	0x3db666da	0.08906336
143	0x3d297ab8	0.0413768
144	0xbc748b60	-0.014925808
145	0x3d856bd8	0.0651471
146	0xbcd496c4	-0.025950797
147	0xbc231e10	-0.009955898
148	0x3dc05c92	0.093926564
149	0x3c65f9a0	0.014036566
150	0x3da3cb46	0.07997756
151	0x3d105cf4	0.035244897
152	0xbc9e9994	-0.019360341
153	0x3d901bf6	0.07036583
154	0xbdb80cc3	-0.08986809
155	0x3beb6bf0	0.007184498
156	0x3c81ee00	0.015860558
157	0x3da63718	0.08115977
158	0xbaf86140	-0.0018949881
159	0x3db993fe	0.090614304
160	0x3d8ff7ee	0.07029711
161	0xbd266dca	-0.040632047
162	0xbdcc8ea1	-0.09988142
163	0x3da998ce	0.08281098
164	0xbd7542e0	-0.05987823
165	0x3d509c18	0.050930113
166	0xbd62398f	-0.055230673
167	0x3d5f2014	0.05447395
168	0x3d888d34	0.06667557
169	0xbda8d1b5	-0.082431234
170	0x3ddb1efc	0.10699269
171	0xbd4fa5f6	-0.050695382
172	0x3d3280e0	0.043579936
173	0xbd9666b7	-0.0734381
174	0xbd865b46	-0.06560378
175	0xbc8b4c08	-0.017004028
176	0x3dbb18a8	0.09135562
177	0x3d765df4	0.060148194
178	0x3c9dc310	0.019258052
179	0x3c5b2590	0.013375655
180	0x3da71c78	0.08159727
181	0xbd4279f8	-0.0474796
182	0xbdb0db4f	-0.0863558
183	0xbdc42a74	-0.0957841
184	0x3daf92cc	0.08572921
185	0xbbbcb490	-0.0057588294
186	0x3ca1d950	0.019756943
187	0x3d89b204	0.06723407
188	0xbd493954	-0.049126938
189	0x3de3a5f4	0.111156374
190	0x3d4d8cfc	0.05018328
191	0x3d5f561c	0.05452548
192	0x3db3f218	0.0878641
193	0xbb365820	-0.0027823523
194	0x3ce52d58	0.027975723
195	0xbb947e30	-0.0045316443
196	0x3db2e598	0.08735198
197	0xbdd6f791	-0.10496438
198	0x3d36ea54	0.044657066
199	0xbcff12c0	-0.03113687
200	0x3c1cde00	0.009574413
201	0xbdd18534	-0.102304846
202	0xbc26e2b8	-0.01018589
203	0xbdc6d228	-0.09708053
204	0xbcc0c3c8	-0.023530856
205	0xbd62ac28	-0.055339962
206	0xbdc7e5f9	-0.09760661
207	0xbce36ea8	-0.027762726
208	0xbb100d40	-0.0021980554
209	0x3cff9a08	0.031201378
210	0x3da73834	0.08165017
211	0xbddc91b6	-0.1076998
212	0x3d2c25d0	0.04202825
213	0x3da146a4	0.07874802
214	0x3d6e5e9c	0.058195695
215	0x3cbb7100	0.022881031
216	0xbd4c48a4	-0.049873963
217	0xbddb29ee	-0.10701357
218	0xbd553213	-0.052049708
219	0xbd66e3bf	-0.05636954
220	0x3c95a2a0	0.018266022
221	0x3dbf9e2e	0.09356342
222	0x3cd06c50	0.025442272
223	0xbdb8e968	-0.09028894
224	0xbd2f77f4	-0.042839006
225	0x3d0ad194	0.033891276
226	0xbd63dcc4	-0.05563046
227	0x3baf2650	0.0053451434
228	0xbcad39e4	-0.021145768
229	0xbd10e998	-0.035379022
230	0x3d102790	0.03519398
231	0xbdd44c4a	-0.103661135
232	0xbd18844a	-0.037235536
233	0xbd2b419e	-0.041810624
234	0x3d7bb614	0.06145294
235	0xbc2ddee0	-0.01061222
236	0x3dcdb0dc	0.10043499
237	0xbce0010c	-0.02734425
238	0x3d20a0dc	0.039215907
239	0x3bcffb00	0.00634706
240	0x3d033851	0.03203613
241	0xbbd2482b	-0.0064172945
242	0x3d835332	0.064123526
243	0xbd97fe21	-0.07421518
244	0x3ddd23ac	0.107978195
245	0x3cddc9d4	0.027073778
246	0x3da9ba6c	0.0828751
247	0x3c0aad64	0.008464191
248	0x3cdaa4f5	0.026689986
249	0x3dd96057	0.106140785
250	0xbd8afdb0	-0.06786668
251	0x3ddbb6c9	0.10728223
252	0xbd96d20e	-0.073642835
253	0x3b9b85b8	0.004746165
254	0x3d87f0db	0.066377364
255	0xbca41a68	-0.020032123

encoder.part2_integrator.fc_layer.bias f4 [48]
0	0x3da50da4	0.08059242
1	0xbd944462	-0.072396055
2	0xbcc16dc0	-0.023611903
3	0x3d6246b5	0.055243213
4	0xbc16e90a	-0.009210834
5	0xbc00644e	-0.0078364145
6	0x3d98a488	0.07453257
7	0x3d69c084	0.057068363
8	0x3da098b2	0.07841624
9	0x3c7e8f51	0.015537099
10	0x3d616756	0.05503019
11	0xbcfd964d	-0.030955458
12	0x3d8d6849	0.069046564
13	0xbce382d0	-0.027772337
14	0xbd1a026e	-0.037599973
15	0x3d7ba264	0.061434165
16	0x3dcf302e	0.101166114
17	0xbd4319b2	-0.047631927
18	0xbd7965c0	-0.060888052
19	0x3d2c6b08	0.04209426
20	0x3c67e9e4	0.014154885
21	0x3d62dfce	0.055389218
22	0xbdc73e8e	-0.09728728
23	0x3dc8e50b	0.098093115
24	0xbcc17d05	-0.023619184
25	0xbdc96417	-0.09833544
26	0x3d765970	0.060143888
27	0x3d3fe405	0.046848316
28	0x3d472f78	0.048629254
29	0x3ddfd9c0	0.109302044
30	0xbca0f9a6	-0.019650292
31	0xbd879198	-0.06619567
32	0xbd0c70ab	-0.034287136
33	0x3de7e79e	0.11323474
34	0x3db7bef4	0.08971968
35	0x3da2b398	0.07944411
36	0xbda678d8	-0.08128518
37	0xbcfa5e96	-0.03056268
38	0x3c52bcd0	0.012862399
39	0xbd40a2c5	-0.04703023
40	0x3d51f579	0.05125949
41	0xbb3e5740	-0.0029043704
42	0x3cc8cf49	0.024512904
43	0xbd1815d1	-0.03713018
44	0xbb024582	-0.0019877856
45	0x3d44ac48	0.048015863
46	0xbd7cc0a0	-0.06170714
47	0x3dc1dfc4	0.09466508

encoder.part3_convoluter.conv1d.weight f4 [96, 48, 3]
0	0x3d0680e7	0.032837775
1	0x3d82c8b9	0.06385941
2	0x3bdc6c09	0.006726746
3	0xbd3ec496	-0.046574198
4	0xbcf04b40	-0.029332757
5	0xbcaad3dc	-0.020852976
6	0x3cd103e0	0.025514543
7	0x3d8da353	0.06915917
8	0x3cc9999c	0.02460938
9	0x3d43f917	0.047844972
10	0xbcb9cf77	-0.022681935
11	0x3d8ea07c	0.06964204
12	0xbbdf2f51	-0.0068110605
13	0x3d3bd7ca	0.04586009
14	0xbd5326c1	-0.05155063
15	0x3c68cfe6	0.014209723
16	0x3be4c7e0	0.006981835
17	0x3d32e45a	0.043674804
18	0xbd96049f	-0.073251
19	0x3d3a38e6	0.04546442
20	0x3d2de115	0.042450983
21	0xbd943d8e	-0.07238303
22	0xbd24b2d0	-0.04020959
23	0x3da8c49d	0.08240626
24	0xbca8cc46	-0.020605218
25	0xbd8ace36	-0.06777613
26	0x3d6ecfe0	0.058303714
27	0xbda537cd	-0.08067284
28	0x3d8b2a08	0.06795126
29	0xbd1dcdc3	-0.038526308
30	0x3d56fd30	0.052487552
31	0xbd10ca28	-0.03534904
32	0x3daa7ee3	0.08324983
33	0xbd0888b8	-0.03333351
34	0x3d80e8ab	0.06294378
35	0xbcb11d0e	-0.0216203
36	0x3d939cb7	0.07207625
37	0x3d34bab0	0.04412335
38	0xbd253f06	-0.040343307
39	0x3cedd894	0.029033937
40	0x3d2aa55e	0.041661613
41	0x3d99543d	0.0748677
42	0xbd1ec4af	-0.03876179
43	0x3b821630	0.00396993
44	0x3cb3581f	0.021892605
45	0xbb9764d0	-0.004620172
46	0xbd39089e	-0.045174234
47	0xbd32a484	-0.043613926
48	0xbd9a7922	-0.075426355
49	0xbd927d4f	-0.07152807
50	0x3d9c547b	0.07633301
51	0xbd1eac82	-0.038738735
52	0xbd92cd45	-0.07168058
53	0xbc908fb0	-0.01764664
54	0xbd81ab2e	-0.06331478
55	0x3d8ac923	0.06776645
56	0xbc45ec28	-0.01208023
57	0x3d9cf3f4	0.07663718
58	0xbd9cc46f	-0.07654654
59	0x3b1e26a1	0.0024131911
60	0x3d962548	0.073313296
61	0x39ffdb53	0.000488008
62	0xbc5b5cf6	-0.013388863
63	0x3d5ca221	0.053865556
64	0xbdaeae42	-0.08529331
65	0x3d5c6eee	0.05381673
66	0xbd691a0d	-0.05690961
67	0x3d38bb63	0.04510058
68	0x3d73bc01	0.059505466
69	0x3d190f3c	0.037368044
70	0xbda7474c	-0.08167896
71	0xbd69e652	-0.057104416
72	0x3bd0573f	0.006358057
73	0x3c57758d	0.013150585
74	0x3d62126c	0.05519335
75	0x3d734cb6	0.05939933
76	0x3c14a038	0.009071402
77	0xbd6ad1ab	-0.05732886
78	0x3d4aa8fa	0.049477555
79	0xbd8d1ea4	-0.0689061
80	0xbd8b304e	-0.06796323
81	0xbd140672	-0.03613896
82	0x3baa9c52	0.005206623
83	0xbcc2259c	-0.023699574
84	0x3db7ce1a	0.08974858
85	0x3da77741	0.08177043
86	0xbd9c1bf9	-0.07622523
87	0xbb96b5d0	-0.0045993105
88	0xbb2e4a6b	-0.002659465
89	0x3d2e9799	0.042625044
90	0xbc768db3	-0.015048432
91	0xbd84d84c	-0.06486568
92	0xbd2c8016	-0.04211434
93	0x3dafa969	0.08577234
94	0x3d8eb9c5	0.069690265
95	0x3c5d7bed	0.013518316
96	0xbd4817a6	-0.048850678
97	0x3cf5200f	0.029922513
98	0xbc4f80fb	-0.012665029
99	0xbd374568	-0.044743925
100	0x3d3489eb	0.04407684
101	0x3d7e49dd	0.06208216
102	0xbd9e1372	-0.07718553
103	0xbd17968e	-0.037008815
104	0x3c192443	0.009347024
105	0x3d287f06	0.041136764
106	0x3c68a24a	0.014198849
107	0xbbd1c429	-0.006401558
108	0xbda96ecf	-0.08273088
109	0xbd10c575	-0.03534456
110	0x3a17709d	0.00057769736
111	0x3d0a380b	0.033744853
112	0x3d200027	0.039062645
113	0x3d8bc145	0.068239726
114	0xbd620de8	-0.055189043
115	0x3d8a826d	0.06763158
116	0x3b16d059	0.0023012368
117	0x3d8b0081	0.067872055
118	0x3c8041fe	0.015656468
119	0xbdbb550b	-0.0914708
120	0xbd91e646	-0.07123999
121	0xbbeb1bb6	-0.0071749343
122	0x3d865920	0.06559968
123	0xbc3a1a00	-0.011358738
124	0x3b9f8550	0.004868187
125	0x3d8a0a3d	0.06740234
126	0xbd002756	-0.031287514
127	0xbd06df4b	-0.032927793
128	0xbd4aca31	-0.04950923
129	0x3c26f82c	0.010191005
130	0x3cdd9da5	0.02705271
131	0xbd1f15a7	-0.03883901
132	0xbc881969	-0.016613679
133	0x3db4c15d	0.088259436
134	0x3b4711de	0.003037564
135	0x3c9acbcc	0.018896006
136	0xbd4363b3	-0.047702502
137	0x3c08cf20	0.008350164
138	0xbd02bc4e	-0.031917863
139	0xbd17b985	-0.03704216
140	0xba3064f7	-0.0006728912
141	0xbc9c0f43	-0.019050246
142	0xbcb96b3b	-0.02263414
143	0x3b56e602	0.0032790904
144	0x3ceeea2c	0.029164396
145	0x3c381058	0.011234365
146	0x3d988a77	0.07448285
147	0x3d53758a	0.051625766
148	0x3d1edf28	0.038787037
149	0xbd928c08	-0.07155615
150	0xbb1a6180	-0.002355665
151	0x3d479262	0.048723586
152	0xbbdf72c0	-0.006819099
153	0xbd8a0060	-0.06738353
154	0x3b47e1a0	0.0030499473
155	0x3cb0f9d0	0.021603495
156	0x3da4378d	0.08018408
157	0xbd88cdfc	-0.066799134
158	0x3cc53364	0.024072357
159	0x3c844c44	0.016149648
160	0xbd718fae	-0.058974914
161	0x3d8273fd	0.06369779
162	0xbd9fce17	-0.078029804
163	0x3cb18c9c	0.021673493
164	0x3d60ddea	0.054899134
165	0x3d5bc472	0.05365414
166	0x3ca46214	0.020066299
167	0xbd4e7d1b	-0.05041228
168	0x3d232850	0.039833367
169	0xbba8ae40	-0.0051477253
170	0x3d8b32cb	0.06796797
171	0x3bbd3000	0.0057735443
172	0x3da04a99	0.078267284
173	0x3ac46ac0	0.0014985427
174	0x3d339f02	0.043852814
175	0xbd6d7b5e	-0.05797898
176	0xbd6bd3be	-0.05757498
177	0x3c597340	0.013272107
178	0xbc45ce08	-0.012073047
179	0x3c49f588	0.012326606
180	0xbd0c4ee0	-0.03425491
181	0x3cad9940	0.02119124
182	0xbc8ef030	-0.017448515
183	0xbd4f7e00	-0.050657272
184	0xbcd90070	-0.026489466
185	0xbd9e9b5a	-0.07744475
186	0x3da0b8c9	0.07847745
187	0xbcf9b15c	-0.03048008
188	0xbd978e50	-0.07400191
189	0xbd305380	-0.04304838
190	0xbd4e81c8	-0.050416738
191	0x3d6200e2	0.055176623
192	0x3a916f00	0.0011095703
193	0xbd87bdcb	-0.06627997
194	0x3d37eb52	0.044902153
195	0x3c1cd1c0	0.009571493
196	0x3c85f410	0.01635173
197	0xbd536f7b	-0.051619988
198	0x3d856a69	0.06514437
199	0x3d359f8a	0.0443416
200	0xbadb32c0	-0.0016723499
201	0xbd3a72e3	-0.04551972
202	0x3d9e56e9	0.077314205
203	0xbd1ce648	-0.03830555
204	0xbc1ed968	-0.009695388
205	0xbcab325c	-0.020898037
206	0x3d8b63a1	0.06806112
207	0x3c8618f4	0.01636932
208	0xbd0ac450	-0.033878624
209	0x3c7b7940	0.0153487325
210	0x3d823523	0.06357791
211	0xbca9e2ac	-0.020737968
212	0xbd0ae9d3	-0.0339144
213	0xbd2043f8	-0.03912732
214	0x3c594e58	0.0132633075
215	0xbc52db48	-0.012869664
216	0x3d5b325a	0.053514816
217	0x3c9cab4c	0.01912465
218	0xbd8dfe47	-0.06933265
219	0x3d55d382	0.052203663
220	0xbb8712d0	-0.0041221157
221	0xbcada206	-0.021195423
222	0x3c9d97f0	0.019237489
223	0x3d2b2ffa	0.0417938
224	0xbcad72a6	-0.021172833
225	0xbd2463ab	-0.040134113
226	0xbc90d94c	-0.01768174
227	0x3ac2cd40	0.0014862195
228	0x3b900ad0	0.00439582
229	0x3d4b4c5e	0.049633376
230	0x3da3a1cb	0.07989844
231	0x3d9103e7	0.070808224
232	0xbcc36706	-0.023852836
233	0x3d62ee7a	0.05540321
234	0x3d4a7c96	0.04943522
235	0xbbd17ed0	-0.006393291
236	0xbd546ad8	-0.051859707
237	0xbda40df2	-0.08010472
238	0xbd50a4a0	-0.05093825
239	0xbd93f5fe	-0.07224654
240	0x3d0f6098	0.03500423
241	0xbd65a266	-0.05606308
242	0xbda81ca6	-0.08208589
243	0xbd81bb90	-0.06334603
244	0x3d2ef5ce	0.042714886
245	0x3c4f7398	0.012661837
246	0xbd42ff8e	-0.047606997
247	0xbd03ebfe	-0.03220748
248	0xbb818a10	-0.003953226
249	0xbaf63140	-0.0018782988
250	0xbd6c49d8	-0.05768761
251	0xbd2091b6	-0.03920146
252	0xbd8fa6eb	-0.07014259
253	0xbd5d0d5e	-0.053967826
254	0xbd4a6c9b	-0.04941998
255	0x3daa3a1f	0.08311867

encoder.part3_convoluter.conv1d.bias f4 [96]
0	0x3d315ca5	0.043301243
1	0xbd142afe	-0.036173813
2	0xbc76a9d8	-0.015055142
3	0xbd9ecb0c	-0.07753572
4	0x3d8f9e35	0.070125975
5	0xbacc9b2d	-0.0015610211
6	0xbd69d702	-0.057089813
7	0x3d4a2e9a	0.04936085
8	0xbd227af8	-0.039668053
9	0x3ce46405	0.027879724
10	0x3bb408ce	0.0054942137
11	0x3d772d75	0.060346086
12	0x3cbba66b	0.022906503
13	0xbd121023	-0.03565992
14	0x3cd5900a	0.02606966
15	0x3d733b7b	0.059382897
16	0x3d40c36d	0.047061373
17	0xbd4c4e33	-0.049879264
18	0x3cf879c1	0.030331494
19	0x3d2677cd	0.040641595
20	0xbc410a52	-0.011782246
21	0x3d2aa155	0.041657764
22	0xbcb94ac6	-0.022618663
23	0xbdbc1b9a	-0.09184952
24	0xbc982a6c	-0.018574916
25	0xbd8a8837	-0.06764262
26	0x3d98a227	0.07452803
27	0x3cd94ace	0.026524927
28	0xbc89a674	-0.016803004
29	0xbda31a66	-0.079640195
30	0x3d99cd11	0.075098164
31	0xbd04fc90	-0.032467425
32	0xbd852637	-0.065014295
33	0xbce92b44	-0.028463013
34	0xbc9fdda6	-0.01951487
35	0xbd341b4a	-0.043971337
36	0x38533f69	5.0365376e-05
37	0x3d7efe97	0.062254515
38	0x3c6adcf8	0.01433491
39	0xbd1eb55d	-0.03874718
40	0x3cd520d1	0.026016625
41	0x3d870589	0.065928526
42	0xbd93d827	-0.07218962
43	0xbd8267f9	-0.063674875
44	0xbdb8059e	-0.089854464
45	0x3c141e1b	0.009040381
46	0xbc7fe4ee	-0.015618546
47	0x3cb95743	0.022624617
48	0x3dc275c2	0.09495117
49	0xbc4a6e4c	-0.012355398
50	0xbd06a62c	-0.032873318
51	0x3d35066c	0.044195578
52	0x3bd0fa65	0.0063775056
53	0xbcd08b76	-0.025457125
54	0xbd32fd62	-0.043698676
55	0x3d8a5b48	0.06755692
56	0x3bb74b80	0.005593717
57	0xbd897b13	-0.06712928
58	0xbcc940eb	-0.024567088
59	0x3da3ee3b	0.08004423
60	0x3d6fe7b2	0.05857057
61	0x3d8ee271	0.06976784
62	0xbd1f10e0	-0.038834453
63	0xbd00be60	-0.031431556
64	0xbce6ed9d	-0.028189475
65	0xbd2782a4	-0.040896073
66	0xbd462d34	-0.048382953
67	0xbd034f86	-0.03205826
68	0x3c85ff03	0.01635695
69	0xbda6bb7c	-0.081412286
70	0xbd117d16	-0.035519682
71	0xbc2ece49	-0.010669299
72	0xbcaf1139	-0.021370517
73	0xbd9dd63d	-0.07706878
74	0x3d475109	0.048661266
75	0x3d943546	0.072367236
76	0x3ce7325b	0.028222254
77	0xbd8b5770	-0.06803787
78	0xbda0e207	-0.07855611
79	0xbd5d825e	-0.054079406
80	0xbd052854	-0.032509163
81	0xbc44f6d9	-0.012021744
82	0x3cb0e010	0.021591216
83	0xbb9af0d0	-0.004728414
84	0x3d9cf637	0.07664149
85	0xbda0b79b	-0.0784752
86	0x3c87efa2	0.016593758
87	0xbd0caf68	-0.034346968
88	0xbd8b1829	-0.067917176
89	0x3d1759fa	0.036951043
90	0x3ce3e65b	0.027819803
91	0x3d02eb82	0.03196288
92	0xbd2d8935	-0.04236718
93	0x3a2d98e9	0.00066222117
94	0xbcb54a27	-0.022130085
95	0xbd007eb8	-0.03137085

decoder.initial_d0_star_h f4 [1, 1, 70]
0	0x3ce4e045	0.027938971
1	0xbd6cf6d2	-0.057852574
2	0xbdd77261	-0.10519863
3	0x3dac2e0f	0.084072225
4	0x3d8406f3	0.06446638
5	0xbddb4b8b	-0.10707768
6	0x3a1b4622	0.00059232314
7	0xbe2d0210	-0.16895318
8	0xbd79d0e6	-0.060990237
9	0x3e0d0dfe	0.13774869
10	0x3b8fc756	0.0043877764
11	0x3d86926d	0.06570897
12	0xbe14a75a	-0.14516965
13	0x3dde580c	0.10856637
14	0x3dd84f6b	0.10562023
15	0x3e0a7a30	0.13523173
16	0x3d048d3f	0.032361265
17	0x3c2cb20e	0.010540498
18	0xbccb7922	-0.024838034
19	0xbd9b8278	-0.07593244
20	0xbe73a7eb	-0.23794524
21	0xbd9eac0a	-0.077476576
22	0x3e00b192	0.12567738
23	0x3d1b91a7	0.0379807
24	0x3dde71d3	0.10861554
25	0x3d5ed424	0.05440153
26	0x3ca74678	0.020419344
27	0xbcb61297	-0.022225661
28	0xbd426ce8	-0.047467142
29	0xbca65ea2	-0.020308796
30	0xbdf8c291	-0.121464856
31	0x3d1b68aa	0.037941612
32	0xbdd4385a	-0.10362311
33	0x3d14fc7f	0.03637361
34	0xbdc4ea85	-0.096150436
35	0xbda1fcdd	-0.07909558
36	0x3db54ce0	0.08852553
37	0x3da1e70e	0.07905398
38	0xbb0e5d5c	-0.0021723127
39	0x3dd64d32	0.104639426
40	0xbd5eb862	-0.05437506
41	0xbc9d0649	-0.019168036
42	0x3d874a1f	0.06605934
43	0x3d408064	0.046997443
44	0xbd877347	-0.06613784
45	0x3ded16f0	0.115766406
46	0x3d25c81b	0.04047404
47	0x3df8d203	0.121494316
48	0x3dadca4e	0.08485852
49	0x3db4ed2f	0.08834302
50	0x3e339a5a	0.17539349
51	0xbd6c0a9e	-0.057627313
52	0xbc1cc22b	-0.009567778
53	0x3e01b154	0.12665302
54	0xbdcf09ff	-0.101093285
55	0x3e3ecc19	0.18632545
56	0xbd04cb23	-0.03242029
57	0x3d2aae2f	0.04167002
58	0x3db31de0	0.087459326
59	0xbde9b1fe	-0.114109024
60	0x3ce930c3	0.028465634
61	0xbdccf7b4	-0.10008183
62	0x3dcdd0de	0.10049604
63	0xbd669ce8	-0.05630198
64	0x3e1177c6	0.14205846
65	0x3dbf4b3a	0.0934052
66	0xbda502d4	-0.0805718
67	0xbe033dd1	-0.1281655
68	0x3e68ac60	0.22722006
69	0x3c45e6e5	0.012078975

decoder.initial_d0_star_c f4 [1, 1, 70]
0	0x3e0ee513	0.13954572
1	0xbe044399	-0.12916411
2	0x3de0ffb9	0.10986275
3	0xbe4882e9	-0.19581188
4	0xbd100fc1	-0.035171274
5	0xbdc2ad3c	-0.09505698
6	0x3d16f300	0.036852837
7	0xbcb18fc1	-0.021674993
8	0x3d3b9fb3	0.045806598
9	0x3e3d29a9	0.18472923
10	0x3e1ea2d9	0.15491809
11	0x3dadcc8c	0.0848628
12	0x3e176877	0.14785944
13	0x3d7b7907	0.061394718
14	0x3dfb708d	0.12277327
15	0x3cb20e11	0.021735223
16	0x3e6c4018	0.23071325
17	0x3d819572	0.063273326
18	0x3da9e4b0	0.08295572
19	0xbe3f3dad	-0.18675871
20	0xbd244054	-0.04010041
21	0xbe38e539	-0.18056192
22	0x3dd40d68	0.103541195
23	0xbb96d007	-0.0046024355
24	0xbe1d1611	-0.15340449
25	0xbd4494ea	-0.047993578
26	0xbe56daf7	-0.20981966
27	0x3d3ff9e8	0.04686919
28	0xbe1657c0	-0.14681911
29	0x3da9c979	0.08290381
30	0xbda7c079	-0.08191008
31	0x3e20dc4c	0.15709037
32	0xbc01db73	-0.007925856
33	0xbc9739e8	-0.018460229
34	0xbe3a9ffc	-0.18225092
35	0x3cc53b88	0.024076238
36	0xbdbd98c0	-0.092576504
37	0x3e980a42	0.29695326
38	0x3d076383	0.033053886
39	0x3d0bbc81	0.03411532
40	0xbcdc1707	-0.026866449
41	0xbe0db063	-0.13836817
42	0xbdf9fcc9	-0.12206418
43	0xbd7b2c5a	-0.061321594
44	0xbe1d065d	-0.15334459
45	0x3e08cf2a	0.13360277
46	0x3db50926	0.088396356
47	0x3e3de626	0.18544826
48	0xbe11446c	-0.14186257
49	0x3c365c7c	0.011130448
50	0xbdd93b05	-0.1060696
51	0x3e023d87	0.12718783
52	0x3e43cc61	0.19120933
53	0x3d59ec3b	0.053203803
54	0x3b7c6615	0.0038512994
55	0xbd6f08c1	-0.058357958
56	0xbd217f40	-0.039427996
57	0x3e142771	0.1446817
58	0x3d1b4f4d	0.037917424
59	0xbda57dc6	-0.0808063
60	0x3ddb2041	0.10699511
61	0x3c55589a	0.013021613
62	0x3d010505	0.031498928
63	0x3e1df89f	0.15426873
64	0xbe26ed07	-0.16301356
65	0x3cc64071	0.02420065
66	0xbddd2cf5	-0.107995905
67	0x3dff2b44	0.12459424
68	0x3dd7f91e	0.10545562
69	0x3e07ff10	0.13280892

decoder.ptr_raw_learnable f4 [1, 25]
0	0xbd45d319	-0.04829702
1	0x3d02a0d1	0.031891648
2	0xbe09cf5b	-0.13458006
3	0xbd09484a	-0.033516206
4	0x3cde3770	0.027126044
5	0x3d399d63	0.04531611
6	0x3db2c747	0.087294154
7	0x3dd718ef	0.105028026
8	0xbd46cef5	-0.048537213
9	0xbdcf780e	-0.101303205
10	0x3e2a88fa	0.16653815
11	0x3e12e32f	0.14344476
12	0x3d8ce47d	0.06879518
13	0xbe3ffd56	-0.18748984
14	0xbd0b378b	-0.033988517
15	0xbdf44bf3	-0.11928549
16	0xbdbe88c5	-0.093034305
17	0x3c787bb4	0.015166212
18	0xbcb93ef9	-0.022613036
19	0x3d88933b	0.06668707
20	0xbd6368c7	-0.055519845
21	0xbde08581	-0.10962964
22	0xbe64f833	-0.22360305
23	0xbcafcc09	-0.021459596
24	0xbd7f2ae6	-0.06229677

decoder.step1_stage.pt_encoder.embedding.weight f4 [30, 2]
0	0x3f09aa96	0.5377592
1	0xbf269e49	-0.65085274
2	0x3e20d27e	0.15705296
3	0xbf1e985d	-0.6195124
4	0xbddfa65e	-0.10920404
5	0x3f35f2f2	0.7107383
6	0x3e2ef6e6	0.17086372
7	0x3e462d10	0.19353127
8	0xbecd692e	-0.40119308
9	0xbee5698e	-0.44807094
10	0xbeb7eccd	-0.35922852
11	0xbf2077d8	-0.6268287
12	0xbf0bc3f4	-0.54595876
13	0xbd7b2161	-0.06131113
14	0x3f168bbe	0.5880698
15	0xbccb7fc5	-0.024841199
16	0xbedc8a27	-0.43074152
17	0xbe9f8a8e	-0.31160396
18	0xbf32fc6d	-0.6991642
19	0xbd7e2e84	-0.06205608
20	0xbdd82cbc	-0.105554074
21	0x3d562c03	0.052288067
22	0x3e0261a5	0.12732561
23	0xbeaf4935	-0.3423554
24	0xbec763ce	-0.38943332
25	0x3f076e14	0.5290234
26	0x3f095544	0.5364573
27	0x3f011e79	0.5043712
28	0xbcb050f1	-0.02152297
29	0xbd99ae80	-0.07503986
30	0x3f2bab42	0.67058194
31	0x3dff2d07	0.1245976
32	0x3f250f7c	0.6447675
33	0x3f3421b3	0.7036392
34	0x3e3fcc76	0.1873034
35	0xbebe2b52	-0.37142426
36	0xbe8287eb	-0.25494322
37	0x3ef02517	0.46903297
38	0xbefcb97e	-0.4936027
39	0x3e6c3c0b	0.2306978
40	0xbeb52512	-0.35379845
41	0xbf1cac63	-0.6120054
42	0xbe9107bc	-0.28326213
43	0xbda36ef6	-0.079801485
44	0xbce743cc	-0.02823057
45	0x3ee02808	0.4378054
46	0x3f2ca353	0.67436713
47	0x3e7ee35b	0.24891417
48	0x3f162785	0.5865405
49	0x3f2d68e6	0.6773819
50	0xbe9ebded	-0.31004277
51	0x3eb93343	0.36171922
52	0xbe88894b	-0.26667246
53	0xbec48c97	-0.38388512
54	0xbe3f5221	-0.18683673
55	0xbd33691d	-0.043801416
56	0x3f2bd956	0.67128503
57	0xbdbe949f	-0.09305691
58	0x3e26acd8	0.16276872
59	0xbe875474	-0.2643162

decoder.step1_stage.pt_encoder.embedding.bias f4 [30]
0	0x3e4d1e42	0.20031074
1	0xbe1b19e4	-0.15146595
2	0x3f0dc00b	0.5537116
3	0x3e66e447	0.22548018
4	0xbe92afd3	-0.28649768
5	0xbe19d54c	-0.15022773
6	0x3eef6388	0.46755624
7	0x3f0735e3	0.528166
8	0x3e55c147	0.2087451
9	0x3f046be2	0.51727116
10	0xbb2f5ac5	-0.0026756984
11	0x3e895419	0.26821974
12	0xbee68c32	-0.45028836
13	0x3dbb8e60	0.09158015
14	0x3ef6e55f	0.4822187
15	0xbe8bd2bf	-0.27309224
16	0x3ef95575	0.4869801
17	0x3e941241	0.28920177
18	0xbee40959	-0.44538382
19	0x3e8bf316	0.27333897
20	0x3f096d35	0.5368226
21	0xbe3ff408	-0.18745434
22	0xbf0badff	-0.5456237
23	0x3ecd4dab	0.40098318
24	0xbd9552d5	-0.072911896
25	0x3f1c6cf6	0.6110376
26	0x3e88961c	0.26677024
27	0x3e23b726	0.15987834
28	0x3e84a786	0.2590906
29	0x3e98d5c9	0.29850605
